checkpoints/model_state_dict_sac_Panda_Lift_1.pth (torch, 329272 bytes, 8 tensors)

fc1.weight f4 [256, 46]
0	0xbe371bf7	-0.17881761
1	0xbf0967a9	-0.536738
2	0xbd9704f1	-0.073739894
3	0x3e705042	0.23468116
4	0xbf030663	-0.5118162
5	0x3e0fcaab	0.14042155
6	0xbdb203e7	-0.086921506
7	0xbe7a1892	-0.24423435
8	0x3db659a0	0.08903813
9	0xbcddaefa	-0.027060974
10	0xbce8a89e	-0.028400715
11	0xbdfc7f83	-0.123290084
12	0x3e013b0a	0.12620178
13	0x3c140e3d	0.009036598
14	0xbea5d2aa	-0.32387286
15	0xbe2dd701	-0.16976549
16	0xbe87176e	-0.26385063
17	0x3d1ab426	0.03776946
18	0xbc4b4d69	-0.012408593
19	0xbe91f491	-0.28506902
20	0xbd9bd787	-0.07609468
21	0x3d6f2435	0.05838414
22	0xbea3f912	-0.32025963
23	0xbc816ccb	-0.015798947
24	0xbb32f6f0	-0.002730783
25	0xbe26eb31	-0.16300656
26	0xbe0a33ba	-0.13496295
27	0xbe50e581	-0.20400049
28	0xbd324e3d	-0.043531645
29	0x3dc8474b	0.09779223
30	0x3bc278a6	0.0059347926
31	0x3e3c5bb6	0.1839436
32	0xbe3dbea8	-0.18529761
33	0xbe0b866f	-0.13625501
34	0xbef9b812	-0.48773247
35	0xbe05d395	-0.13068993
36	0x3f037679	0.5135265
37	0x3ccc3559	0.024927782
38	0x3d313500	0.043263435
39	0x3e3cd108	0.18439114
40	0xbe52b5fc	-0.20577234
41	0xbdc1052f	-0.09424817
42	0x3df9ea7d	0.12202928
43	0xbe3f7c6c	-0.18699807
44	0x3ea3d4cf	0.31998298
45	0x3dfa95e1	0.122356184
46	0xbe587c32	-0.21141127
47	0x3defb18e	0.11703788
48	0xbd75a408	-0.059970886
49	0xbeac6a8d	-0.33675042
50	0x3de3eed8	0.1112954
51	0xbde66394	-0.11249462
52	0x3e0193d6	0.12654051
53	0x3e08ea36	0.13370594
54	0x3e92d37a	0.2867697
55	0xbd5389fe	-0.05164527
56	0xbd45425f	-0.048159
57	0xbe8baba4	-0.2727939
58	0x3dd5b45b	0.10434791
59	0xbd96acb3	-0.073571585
60	0x3ceb8bee	0.028753247
61	0xbe1cb123	-0.15301947
62	0x3cf34813	0.029697454
63	0xbe4d5f5c	-0.20055908
64	0x3e5a56d1	0.2132218
65	0xbe818511	-0.25296834
66	0x3c8f1793	0.017467296
67	0x3d9f2b34	0.07771912
68	0xbec96936	-0.39338082
69	0x3e02da81	0.12778665
70	0x3e1be00f	0.1522219
71	0xbe3d85ea	-0.18508115
72	0xbaddd053	-0.0016923047
73	0x3bbd0cb4	0.0057693366
74	0xbdc47504	-0.095926315
75	0x3d73d620	0.059530377
76	0xbe05ad37	-0.13054357
77	0xbe4592f9	-0.19294347
78	0xbe930751	-0.2871652
79	0x3cb9b96d	0.022671426
80	0xbe40fae6	-0.1884571
81	0x3c4bac47	0.012431211
82	0x3e803938	0.25043654
83	0x3b890412	0.0041813934
84	0x3e91f41e	0.2850656
85	0xbec0438d	-0.37551537
86	0x3f2e9245	0.6819194
87	0xbeb11b49	-0.3459113
88	0x3e7d1a06	0.24716958
89	0xbde78f56	-0.11306636
90	0x3e47a777	0.19497477
91	0xbeb38097	-0.35059044
92	0xbf0fdd4e	-0.5619706
93	0xbee1fa9f	-0.4413652
94	0xbcf81d33	-0.03028736
95	0xbe2189cc	-0.15775222
96	0x3db16e15	0.086635746
97	0xbe47a0cd	-0.19494934
98	0xbe98aefa	-0.29820997
99	0x3d51344b	0.05107526
100	0x3de25a17	0.110523395
101	0xbf5339d9	-0.82510144
102	0xbe431552	-0.19051102
103	0x3d542670	0.05179447
104	0xbe73d6a2	-0.23812345
105	0xbe9c561d	-0.3053445
106	0x3e10dea4	0.1414743
107	0xbde0b320	-0.109716654
108	0x3dcef44e	0.10105191
109	0x3d25b08c	0.04045157
110	0xbdede1b6	-0.116153166
111	0xbec8e605	-0.3923799
112	0x3d361d9d	0.044461835
113	0xbe85d769	-0.26140907
114	0x3d94ef03	0.0727215
115	0x3ed845c4	0.42240727
116	0x3dafa5e0	0.0857656
117	0xbcdcb930	-0.026943773
118	0x3daefee6	0.08544712
119	0xbda724e9	-0.08161337
120	0xbd3ad0d8	-0.045609325
121	0x3d52cb5e	0.051463477
122	0x3b79d16e	0.0038119215
123	0xbe82a588	-0.25516915
124	0xbdc45ed5	-0.095884
125	0x3e63768b	0.2221319
126	0xbd840f62	-0.064482465
127	0x3e57e09b	0.21081774
128	0xbd71df87	-0.059051063
129	0x3e6b65b9	0.22988023
130	0xbd828fa2	-0.06375052
131	0x3da66e0e	0.0812646
132	0xbd3c8d76	-0.046033345
133	0xbc7a991c	-0.015295293
134	0x3d5a7d11	0.05334193
135	0xbe4a1d2f	-0.19737695
136	0xbbb184b3	-0.0054174303
137	0xbe984c14	-0.29745543
138	0xbe7d17a0	-0.24716043
139	0x3e5ae135	0.21374972
140	0x3c808bb0	0.015691608
141	0xbef3cf4e	-0.47619098
142	0xbd3ed2d4	-0.04658778
143	0xbebddf0c	-0.37084234
144	0xbe761dde	-0.24034831
145	0xbe5ea4fd	-0.21742626
146	0x3dbafca2	0.09130217
147	0x3f23534b	0.6379897
148	0xbd4a48f5	-0.049385983
149	0xbe3e4036	-0.18579182
150	0x3d9e0cfa	0.07717319
151	0x3e07e87c	0.1327228
152	0x3de0de56	0.10979907
153	0xbe299b13	-0.16563062
154	0xbb421982	-0.0029617255
155	0x3e8fa161	0.2805281
156	0x3d176b42	0.036967523
157	0xbc57fdea	-0.013183096
158	0xbde68ab0	-0.11256921
159	0x3e2e629c	0.17029804
160	0xbe284ffe	-0.16436765
161	0xbd6a0238	-0.057131022
162	0xbd62b1ee	-0.05534547
163	0xbc645e7d	-0.013938543
164	0xbe456e2d	-0.1928031
165	0x3c6db5ca	0.014508674
166	0xbbe1200e	-0.0068702763
167	0xbe3bc8a5	-0.18338259
168	0x3d89c118	0.06726283
169	0x3d9f2e52	0.07772507
170	0x3dd5f761	0.104475744
171	0xbdff580d	-0.12467966
172	0xbe2d4c2c	-0.16923589
173	0xbe004efb	-0.12530129
174	0xbe34bd2a	-0.17650285
175	0x3d18c780	0.037299633
176	0xbdac3fa0	-0.08410573
177	0x3ea1992e	0.3156218
178	0x3eee9325	0.46596637
179	0xbe667305	-0.22504814
180	0xbd0320c7	-0.03201368
181	0xbc970cdc	-0.018438749
182	0x3e0c9b6a	0.13731161
183	0xbdc37f6c	-0.09545788
184	0xbdd60c52	-0.10451569
185	0xbe49fe34	-0.19725877
186	0xbe11e930	-0.1424911
187	0xbef40216	-0.4765784
188	0xbedd7c92	-0.43259102
189	0x3e5cc892	0.21560887
190	0xbebf6ad4	-0.3738619
191	0xbe2999aa	-0.16562524
192	0x3e93fd24	0.28904068
193	0xbf0652c8	-0.52470064
194	0xbe03069a	-0.12795487
195	0x3df33647	0.11875587
196	0xbe1d6803	-0.15371709
197	0x3ea00a37	0.31257793
198	0x3e11105b	0.14166395
199	0x3ed9aca8	0.4251454
200	0xbe4c2f80	-0.19939995
201	0xbe1b9db2	-0.15196875
202	0xbe2af775	-0.1669596
203	0xbd9961bb	-0.07489344
204	0x3c336eec	0.010951739
205	0xbcc39db2	-0.023878906
206	0x3cc589b4	0.024113514
207	0x3e49a2a7	0.19690953
208	0x3d53f712	0.051749296
209	0xbc3104d0	-0.01080437
210	0x3e492ee6	0.19646797
211	0x3e148518	0.14503896
212	0x3e314e74	0.17315084
213	0x3e61a700	0.22036362
214	0x3e4ff2c7	0.20307456
215	0xbc51e75a	-0.012811506
216	0xbe3f867d	-0.18703647
217	0x3dedfafe	0.116201386
218	0xbdf6b9c6	-0.12047152
219	0x3e12854e	0.14308664
220	0xbc6b6cea	-0.014369229
221	0xbe080cbf	-0.13286112
222	0xbca22843	-0.019794589
223	0xbea9c2d8	-0.33156466
224	0xbd744b04	-0.059641853
225	0xbe3313d2	-0.1748803
226	0xbefe80c2	-0.4970761
227	0x3ebfbd50	0.3744912
228	0xbea2fd96	-0.31834096
229	0x3eb39d25	0.3508083
230	0x3dc86a4c	0.097858995
231	0x3e4beed1	0.1991532
232	0xbdd3a40a	-0.10334022
233	0x3f01930f	0.5061502
234	0xbec22307	-0.3791735
235	0x3e1b363a	0.15157405
236	0x3e651306	0.22370538
237	0x3e3648b3	0.1780117
238	0x3e0ac3e2	0.13551286
239	0xbe1d8da8	-0.15386069
240	0xbe8ff931	-0.28119805
241	0xbe84f712	-0.2596975
242	0xbde74cd1	-0.112939484
243	0x3ddb77b8	0.10716194
244	0xbd033aa6	-0.032038353
245	0x3f20034d	0.62505037
246	0x3e8584c0	0.26077843
247	0xbe707b8f	-0.23484634
248	0x3dcca826	0.09993009
249	0xbe519744	-0.2046786
250	0x3e25c71c	0.16189235
251	0x3e257852	0.1615918
252	0x3c90f634	0.017695524
253	0xbc804b3c	-0.015660875
254	0xbe207bc8	-0.15672219
255	0x3d8ca61b	0.068676196

fc1.bias f4 [256]
0	0xbd816402	-0.06317903
1	0xbc18476a	-0.00929437
2	0x3dcf9189	0.101351805
3	0x39e0ab5c	0.00042852282
4	0x3c05f4cc	0.00817604
5	0xbda36dfe	-0.07979964
6	0xbdb05248	-0.08609444
7	0xbe0770ba	-0.13226596
8	0xbd2d4df3	-0.042310666
9	0xbc7e375a	-0.0155161265
10	0xbdebd260	-0.11514735
11	0xbe22c6c3	-0.15896134
12	0xbd321648	-0.04347828
13	0xbdac9b54	-0.08428064
14	0xba537779	-0.0008066814
15	0x3d2aa599	0.041661832
16	0xbcc0d047	-0.023536814
17	0xbd87116d	-0.065951206
18	0xbded62b6	-0.11591093
19	0x3dd75efa	0.10516162
20	0xbdcbd911	-0.099535115
21	0x3bb8dc70	0.0056415126
22	0xbe24eb06	-0.1610528
23	0xbe3851ab	-0.17999904
24	0x3c76cdc9	0.015063711
25	0xbde60ced	-0.11232934
26	0xbde2ac87	-0.11068063
27	0xbd9ee9e5	-0.077594556
28	0x3d0abbe5	0.033870596
29	0xbe1cb686	-0.15304002
30	0xbe03e542	-0.12880424
31	0xbd7e923c	-0.06215118
32	0xbdd9fc5b	-0.10643836
33	0x3c9e3b9a	0.01931553
34	0x3dc813e4	0.09769419
35	0xbcdeefa5	-0.02721388
36	0xbd68ffa8	-0.056884438
37	0xbcc6c18e	-0.024262216
38	0xbcc57bdd	-0.024106914
39	0x3bd203a2	0.0064091245
40	0xbd956220	-0.072941065
41	0x3d8714c4	0.065957576
42	0xbd9808c6	-0.074235484
43	0xbd261d33	-0.04055519
44	0xbd1e4c0f	-0.038646754
45	0xbdce08cf	-0.10060274
46	0xbddbe470	-0.1073693
47	0xbe03909c	-0.12848133
48	0xbc9867a3	-0.018604105
49	0xbb5b5f0c	-0.00334734
50	0xbddae5f4	-0.10688391
51	0x3da098ab	0.07841619
52	0x3d53d22a	0.0517141
53	0xbe049742	-0.12948325
54	0xbd17e19d	-0.037080396
55	0x3ca6b1e3	0.020348495
56	0xbd72b526	-0.059254788
57	0xbda24b63	-0.07924535
58	0xbb8cab2a	-0.0042928653
59	0x3d176f8f	0.036971625
60	0xbc1bf746	-0.009519404
61	0x3ca780fb	0.020447245
62	0xbd7131b1	-0.05888528
63	0x3c424084	0.011856202
64	0xbd678227	-0.056520607
65	0xbcca58d9	-0.024700569
66	0xbd7e92f1	-0.062151853
67	0xbc9eef37	-0.019401176
68	0x3d963d7b	0.07335945
69	0xbcb6d38a	-0.022317667
70	0xbe2c5d68	-0.16832507
71	0xbe350dc0	-0.17681026
72	0xbc862898	-0.016376778
73	0xbdb04e88	-0.08608729
74	0xbe45cf74	-0.19317418
75	0xbcdb06fa	-0.026736725
76	0xbd5f50fc	-0.054520592
77	0x3d1921c3	0.037385713
78	0xbd794c15	-0.060863573
79	0xbd80404e	-0.06262265
80	0xbd71b233	-0.059007835
81	0x3dca0f34	0.09866181
82	0x3d8ea2b0	0.06964624
83	0xbd231f4a	-0.03982476
84	0xbe3996c0	-0.18123913
85	0x3d3f14cf	0.046650704
86	0x3cab0378	0.020875677
87	0x3c00c6ef	0.007859929
88	0x3e00fb8d	0.12595959
89	0xbd272b74	-0.040812925
90	0x3d5c24a4	0.05374588
91	0x3dbec44a	0.09314783
92	0xbc9179e6	-0.017758321
93	0xbd30733a	-0.04307864
94	0xbce447c7	-0.027866257
95	0xbe32e2d7	-0.17469345
96	0xbca92c38	-0.020650968
97	0xbd043ab7	-0.032282557
98	0xbc2cd413	-0.010548609
99	0xbe0927de	-0.13394114
100	0x3b13ff0e	0.0022582444
101	0x3d5ae603	0.053442013
102	0x3d260055	0.04052766
103	0xbd2f87c5	-0.04285409
104	0xbe3a2c4d	-0.18180962
105	0xbc0b3b21	-0.008497984
106	0xbdadab9d	-0.08479998
107	0x3cc2ff5e	0.02380341
108	0xbdf51604	-0.1196709
109	0xbdc1def5	-0.09466354
110	0xbd25b6c5	-0.040457506
111	0x3db8ce26	0.09023695
112	0xbdb55fbb	-0.0885615
113	0xbcf1037a	-0.029420603
114	0xbd8695c3	-0.065715335
115	0xbdf9071d	-0.1215956
116	0xbd86c3e9	-0.06580336
117	0xbde484a7	-0.11158114
118	0xbe8e0aac	-0.27742517
119	0x3d698bf8	0.05701825
120	0x3d2d08e6	0.042244814
121	0xba235a9f	-0.000623146
122	0x3d416b12	0.04722125
123	0xbd9e8cea	-0.07741721
124	0xbe19daf0	-0.15024924
125	0x3ddc30cd	0.107514955
126	0xbe0243a4	-0.12721115
127	0x3d66a392	0.056308337
128	0xbdb998cc	-0.09062347
129	0xbd6016dd	-0.054709304
130	0x3e031ac4	0.12803179
131	0x3cfc84b2	0.030824993
132	0x3d9625bf	0.07331418
133	0xbae7a346	-0.0017672561
134	0x3ce604d6	0.028078478
135	0xba9adb6a	-0.0011814658
136	0xbc2e3c57	-0.010634503
137	0x3d844c14	0.06459823
138	0xbdc93e51	-0.09826339
139	0xbd99505d	-0.07486031
140	0xbda3b81b	-0.079941
141	0x3cfa9ccd	0.030592347
142	0x3caeead7	0.021352215
143	0xbdd4978e	-0.10380469
144	0x3de6c2b1	0.11267603
145	0xbe07ae75	-0.13250144
146	0x3d98b159	0.074557014
147	0x3d9e9d3b	0.07744833
148	0xbdb14b27	-0.08656912
149	0xbde92584	-0.11384109
150	0x3d6676ec	0.056265756
151	0x3d9bb160	0.07602191
152	0xbb05509a	-0.0020342232
153	0xbe0f05f4	-0.13967115
154	0xbe49ddd9	-0.19713534
155	0xbc8e0ebb	-0.017341008
156	0x3d3811a5	0.044938702
157	0x3da06a18	0.07832736
158	0xbe22fe85	-0.15917404
159	0xbe42d8f8	-0.1902808
160	0xbc981c14	-0.018568076
161	0xbd3f18e6	-0.046654604
162	0xbdad2889	-0.08454997
163	0xbd909814	-0.070602566
164	0xbc101fe7	-0.008796669
165	0xbd9c8777	-0.07643025
166	0xbd87d2a5	-0.06631974
167	0xbe2ccafe	-0.1687431
168	0xbd00627e	-0.03134393
169	0x3d65ece4	0.05613412
170	0x3d0b0f10	0.03394991
171	0x3d3292a2	0.04359687
172	0xbd84d2e1	-0.064855345
173	0xbe5c3e04	-0.21508032
174	0x3d2069b1	0.039163295
175	0x3d854e60	0.065090895
176	0x3d69ed1a	0.057110883
177	0xbe420068	-0.18945467
178	0xbdfe92a7	-0.124303155
179	0x3db83777	0.08994954
180	0x3c1403c6	0.009034103
181	0xbd8e4cb3	-0.06948223
182	0xbe0b31f5	-0.13593276
183	0x3c700bd3	0.014651257
184	0xbd1aefab	-0.03782622
185	0xbd680744	-0.056647554
186	0xbd6f2b55	-0.058390934
187	0x3d64d227	0.05586448
188	0x3d7d1497	0.061787214
189	0xbe216201	-0.15760042
190	0x3d0c1889	0.034203086
191	0x3c24351b	0.010022427
192	0x3c5e2e44	0.013560835
193	0x3c646fc8	0.013942666
194	0xbbb53d78	-0.0055310093
195	0xbe52c5c1	-0.2058325
196	0xbe160100	-0.14648819
197	0xbdf85657	-0.12125843
198	0xbd771b9b	-0.06032906
199	0x3d05cd68	0.032666594
200	0xbc78c21c	-0.015182998
201	0xbd9a7833	-0.075424574
202	0xbe031d4d	-0.12804146
203	0xbdf635c6	-0.12021975
204	0xbe229e34	-0.15880662
205	0x3d437cfa	0.04772661
206	0xbe183282	-0.14863017
207	0xbc7e0981	-0.015505196
208	0xbc2f35a2	-0.010693939
209	0xbdf13b38	-0.11778873
210	0xbde3c273	-0.111210726
211	0x3d37c2bb	0.044863444
212	0x3c8fa940	0.01753676
213	0x3ae30159	0.0017319127
214	0xbe44545e	-0.19172809
215	0xbdefef34	-0.11715546
216	0x3d0268d2	0.031838246
217	0xbda0293c	-0.07820365
218	0xbd0ac052	-0.033874817
219	0x3d962416	0.073311016
220	0xbd6626bb	-0.05618928
221	0x3dd3e232	0.10345878
222	0xbcb4b283	-0.022057777
223	0xbdce53dc	-0.10074589
224	0xbd9228c2	-0.0713668
225	0x3d659370	0.05604881
226	0xbe1f73d5	-0.1557153
227	0xbc14ec58	-0.009089552
228	0x3db9f5df	0.09080099
229	0x3e0a92cc	0.13532561
230	0x3db35d91	0.08758081
231	0xbdd332e2	-0.103124395
232	0xbd757817	-0.05992898
233	0x3c9c2153	0.019058859
234	0xbe282986	-0.1642209
235	0x3db9c04d	0.090698816
236	0x3c6f93a7	0.014622605
237	0x3ca4d93e	0.02012312
238	0x3c5b1a14	0.013372917
239	0xbcc75d02	-0.024336342
240	0xbe3d8910	-0.18509316
241	0xbdbf74b0	-0.09348428
242	0x3d465f4d	0.04843073
243	0xbdd63a65	-0.104603566
244	0x3dac0bf1	0.08400715
245	0xbc53fd49	-0.012938806
246	0xbca1b29e	-0.019738492
247	0x3d86324c	0.06552562
248	0xbd841cb5	-0.06450788
249	0x3d99bc05	0.07506565
250	0xbe0a7b65	-0.13523634
251	0x3d62adfe	0.055341713
252	0x3d744188	0.059632808
253	0xbdc560c9	-0.09637601
254	0x3ddd797a	0.108141854
255	0x3dd377b8	0.10325569

fc2.weight f4 [256, 256]
0	0x3cf97d1b	0.030455163
1	0xbe2eb396	-0.17060694
2	0xbebcf75c	-0.3690747
3	0x3c3bbbd9	0.011458361
4	0xbd488acb	-0.04896049
5	0xbeb3dd68	-0.35129857
6	0xbcae6eda	-0.021293093
7	0x3de52521	0.111887224
8	0x3d09e113	0.033661913
9	0xbd516412	-0.051120825
10	0xbdee1454	-0.11624971
11	0xbd35a2fa	-0.04434488
12	0x3d09248f	0.03348213
13	0xbeda827c	-0.42677677
14	0xbe70cc23	-0.23515372
15	0x3dca3340	0.098730564
16	0x3e15d749	0.14632906
17	0xbef1504a	-0.47131568
18	0x3d9c9adb	0.07646724
19	0x3d8656cc	0.06559524
20	0x3e1d4567	0.15358506
21	0x3d84217b	0.064516984
22	0xbc06f4e1	-0.008237095
23	0x3d6ce619	0.057836626
24	0xbf053bbb	-0.52044266
25	0x3d9e2bbd	0.07723186
26	0xbdb0aaa4	-0.08626297
27	0xbf5f5fac	-0.8725536
28	0xbc662d52	-0.014048891
29	0xbd00f4e6	-0.031483553
30	0x3c757b99	0.014983081
31	0x3d9cad37	0.076502256
32	0xbf2ab8af	-0.66688055
33	0xbd21ee51	-0.039533917
34	0x3d2414d6	0.040058933
35	0x3d0d1659	0.03444514
36	0xbd3c7b70	-0.046016157
37	0xbd6b6ec5	-0.057478685
38	0x3dcdbcae	0.100457534
39	0x3e2cc822	0.1687322
40	0xbe032576	-0.12807259
41	0xbe79f50a	-0.24409881
42	0xbcac3049	-0.021019118
43	0xbe5925fc	-0.21205896
44	0x3e265f1d	0.1624722
45	0x3ea63810	0.32464647
46	0xbe834001	-0.2563477
47	0x3c48e162	0.012260767
48	0xbe1682ea	-0.14698377
49	0xbd85bf94	-0.06530681
50	0x3e315c1c	0.17320293
51	0xbf0106ca	-0.50400984
52	0xbdd0f79d	-0.102034785
53	0xbd063633	-0.032766532
54	0x3d8a9a7f	0.06767749
55	0xbe580b55	-0.21098073
56	0x3d14e36c	0.0363497
57	0xbd3704f7	-0.04468247
58	0x3d8646cd	0.06556473
59	0x3d157fa8	0.036498696
60	0x3d0e3037	0.03471395
61	0x3d6ba997	0.05753478
62	0xbe5fc0b3	-0.21850853
63	0xbd9b1f0c	-0.07574281
64	0x3df78386	0.12085633
65	0x3e273ad3	0.16331033
66	0x3e520250	0.20508695
67	0x3ecc502a	0.3990491
68	0x3e36d023	0.17852835
69	0x3e0209a7	0.12698995
70	0xbe48c0d7	-0.19604813
71	0xbe5e4f5b	-0.21709959
72	0x3e2dfdba	0.1699132
73	0x3c822a46	0.015889298
74	0x3eb0ff7c	0.3456992
75	0xbd0c5e41	-0.034269575
76	0x3e01131b	0.12604944
77	0x3d6630f5	0.056199033
78	0xbd762085	-0.060089607
79	0xbd2b1920	-0.041772008
80	0x3daddae4	0.08489016
81	0xbe06ab7c	-0.13151354
82	0xbe54f6c9	-0.20797266
83	0x3dd4eefe	0.10397147
84	0x3dbe4ede	0.092923865
85	0x3ddbbd1f	0.10729431
86	0x3cb34858	0.021885082
87	0xbda7ed4a	-0.08199556
88	0x3c936cd6	0.017996233
89	0x3c42a3a9	0.01187984
90	0xbcaa9fb4	-0.020828106
91	0xbdaebb82	-0.08531858
92	0xbc69ecc6	-0.014277643
93	0xbdfe84b1	-0.124276526
94	0x3dc49b25	0.09599904
95	0x3e2259f9	0.15854634
96	0xbdc745ef	-0.09730136
97	0xbe508f2d	-0.20367117
98	0x3c9cc34b	0.019136092
99	0xbda38103	-0.079835914
100	0xbca350c4	-0.019935973
101	0xbc70cf76	-0.0146979
102	0xbe37cc35	-0.17948993
103	0xbdc2cbef	-0.095115535
104	0x3d335cd3	0.043789696
105	0xbdae4ca7	-0.08510714
106	0xbf3d5e9c	-0.7397249
107	0x3cb57e61	0.022154989
108	0x3c778dd5	0.015109499
109	0xbde03a07	-0.10948568
110	0x3e34166a	0.17586675
111	0xbe032de4	-0.12810475
112	0x3dda319e	0.10653995
113	0xbccd0e78	-0.025031313
114	0x3ce98312	0.028504882
115	0x3e52e0ed	0.20593615
116	0xbebc0951	-0.36725858
117	0xbc62737b	-0.013821478
118	0x3cc8d812	0.024517093
119	0xbe64cb6c	-0.22343224
120	0x3da3906d	0.079865314
121	0x3df3a5a3	0.11896827
122	0xbe39748c	-0.18110865
123	0x3d2feba1	0.042949323
124	0x3da27d0e	0.079340085
125	0xbe095887	-0.13412677
126	0x3cb1388f	0.021633415
127	0xbe8178a2	-0.25287348
128	0xbdc00be5	-0.09377269
129	0xbe1a240a	-0.1505281
130	0x3dc470c7	0.09591823
131	0x3e6712bd	0.22565742
132	0x3e6cef74	0.23138219
133	0xbe83090c	-0.2559284
134	0xbddb423e	-0.10705994
135	0xbe734c12	-0.23759487
136	0xbe0704c5	-0.13185413
137	0x3df4e6e4	0.119581014
138	0xbe29bb47	-0.16575347
139	0xbd13e612	-0.036108084
140	0xbc95b167	-0.018273069
141	0x3e4a1853	0.19735841
142	0xbe592215	-0.21204408
143	0x3c199f6d	0.009376389
144	0xbdb014c5	-0.085977115
145	0xbce6ecf9	-0.02818917
146	0x3d633456	0.055469833
147	0xbde94053	-0.11389222
148	0xbccabd95	-0.024748603
149	0xbe4e7566	-0.20161971
150	0x3d38d8b7	0.04512855
151	0x3dd175eb	0.10227569
152	0x3df948b2	0.12172069
153	0x3d642f4c	0.05570917
154	0xbe1af521	-0.15132572
155	0xbe1df760	-0.15426397
156	0x3dd5d628	0.10441238
157	0x3e11643c	0.14198393
158	0x3d31297b	0.04325245
159	0x3e7442c4	0.23853594
160	0x3d90a4a8	0.07062656
161	0xbef786ff	-0.4834518
162	0xbe2eb705	-0.17062004
163	0xbd7ecdf9	-0.06220815
164	0xbb78e072	-0.0037975577
165	0xbe645bf0	-0.22300696
166	0x3d659ac7	0.05605581
167	0xbd92eb83	-0.071738265
168	0xbc9787ae	-0.018497314
169	0xbd4ddce4	-0.050259486
170	0x3d368c95	0.044567663
171	0xbe7cb078	-0.24676692
172	0xbd5637d6	-0.052299343
173	0x3dce54e3	0.100747846
174	0x3dbe4e88	0.092923224
175	0x3df32025	0.118713655
176	0x3d8b9d8e	0.068171605
177	0x3e14e910	0.14542031
178	0x3e35c899	0.17752303
179	0xbd244fdb	-0.04011522
180	0xbd687d9c	-0.056760415
181	0xbaaf6860	-0.0013382547
182	0x3e7e5450	0.2483685
183	0xbe781fb2	-0.24230841
184	0xbdc97baf	-0.09838044
185	0x3e10f69f	0.14156578
186	0xbeb5de01	-0.35520938
187	0xbdfc67b0	-0.12324464
188	0x3cb9aa79	0.022664296
189	0x3e1a6e62	0.1508117
190	0x3e090b85	0.133833
191	0x3e81fe50	0.25389338
192	0x3d127e08	0.035764724
193	0xbd45ab76	-0.04825922
194	0xbdbdf0f1	-0.092744716
195	0x3c69b11b	0.014263417
196	0xbd8e0d62	-0.06936146
197	0x3b8023cf	0.0039105187
198	0xbded308a	-0.11581524
199	0x3e4ba10a	0.1988565
200	0x3e0ff04d	0.14056511
201	0x3e2fd159	0.17169704
202	0xbecfdf49	-0.4060004
203	0xbd03125f	-0.031999942
204	0xbd691b2d	-0.056910682
205	0x3e619dcd	0.22032852
206	0xbdfd3b84	-0.12364867
207	0xbddb94e1	-0.10721756
208	0xbccee4c8	-0.025255576
209	0xbd4ca487	-0.049961593
210	0xbe824bf1	-0.25448564
211	0xbde8151c	-0.11332151
212	0xbdd687aa	-0.104750946
213	0xbc126549	-0.008935281
214	0x3c72a752	0.0148104
215	0xbdd9ff55	-0.10644404
216	0xbcfdffce	-0.031005766
217	0x3dca92f2	0.09891309
218	0x3e02c815	0.12771638
219	0xbf282189	-0.6567617
220	0x3dcf9d7f	0.10137462
221	0xbb0c731d	-0.0021430918
222	0x3c1cc41f	0.009568243
223	0x3db7335a	0.089453414
224	0xbd04e6ad	-0.032446552
225	0xbe834e37	-0.2564561
226	0x3e7ab748	0.24483979
227	0x3d96d747	0.0736528
228	0xbd8cf91c	-0.06883451
229	0x3c30aaad	0.01078288
230	0xbdb641bc	-0.088992566
231	0x3e25c259	0.16187419
232	0x3dd7b01c	0.10531637
233	0x3e1d8a2d	0.15384741
234	0x3ca533ad	0.020166242
235	0x3cb5de81	0.022200825
236	0xbc0b2f5d	-0.008495179
237	0x3d88fc47	0.06688743
238	0xbd2164c9	-0.039402757
239	0xbd7125ec	-0.058874056
240	0xbece2f52	-0.40270478
241	0x3e599ed4	0.21251994
242	0xbe6cfa88	-0.23142445
243	0x3de6afaa	0.11263974
244	0xbdf94c79	-0.12172789
245	0x3dd83cb8	0.10558456
246	0x3c8c59a9	0.017132597
247	0xbe053b56	-0.13010916
248	0xbddde72a	-0.10835107
249	0x3dbe57a5	0.092940606
250	0xbe7ff28d	-0.2499487
251	0x3e5040ef	0.2033727
252	0xbeb5c71b	-0.35503468
253	0xbd2399de	-0.03994166
254	0xbd4ea8ce	-0.050453953
255	0xbc1ef07b	-0.00970089

fc2.bias f4 [256]
0	0x3db2889b	0.08717462
1	0x3e249b77	0.1607493
2	0x3e266301	0.16248704
3	0xbd335511	-0.043782298
4	0x3d8ccd1f	0.06875061
5	0x3d95c3ba	0.073127225
6	0x3dfafd54	0.1225535
7	0xbdb812cc	-0.0898796
8	0x3d045ada	0.032313205
9	0x3cd082af	0.02545294
10	0x3e1342a0	0.14380884
11	0x3d34c221	0.04413045
12	0x3b4757d6	0.0030417345
13	0x3c029802	0.007970812
14	0x3d8f1a38	0.06987423
15	0xbd8e022f	-0.0693401
16	0x3cc34bef	0.023839919
17	0x3e2605bb	0.16213124
18	0x3ceb5939	0.028729068
19	0x3deaac53	0.114586495
20	0xbd113069	-0.03544656
21	0x3d986d2b	0.07442697
22	0x3a0717a7	0.0005153366
23	0x3ba4267b	0.00500947
24	0x3d10cb86	0.035350345
25	0xbe0fb59c	-0.14034122
26	0x3d9d787b	0.076889955
27	0xbe1baeab	-0.1520335
28	0x3dc65367	0.096838765
29	0xbc89b2d2	-0.016808901
30	0x3ceb2e1d	0.028708512
31	0xbd1822b4	-0.03714247
32	0x3db3e1bd	0.087832905
33	0xbdb1e135	-0.08685533
34	0xbd135e07	-0.035978343
35	0x3deac98a	0.11464222
36	0xbd9a8cf9	-0.0754642
37	0x3dd65da7	0.104670815
38	0xbd410861	-0.04712713
39	0xbd6af71c	-0.057364568
40	0x3da0b2e7	0.07846623
41	0x3ba2b4f4	0.004965419
42	0xbcb4fbfe	-0.022092815
43	0x3db29eb6	0.08721678
44	0xbdad9e33	-0.0847744
45	0x3ddda42f	0.10822331
46	0x3e08c92c	0.13357991
47	0x3d5c22c4	0.053744093
48	0xbd9ddada	-0.07707758
49	0xbd076473	-0.03305478
50	0x3dcba04f	0.09942686
51	0xbe0ff59c	-0.14058536
52	0xbd9ccd68	-0.07656366
53	0x3e14a991	0.1451781
54	0x3e1f238e	0.15540907
55	0x3e10906a	0.1411759
56	0x3bd4f8fb	0.0064994073
57	0x3de51e0b	0.11187371
58	0x3c9d8b58	0.019231483
59	0xbda8e870	-0.08247459
60	0xbd914c38	-0.07094616
61	0x3d7bda5a	0.061487533
62	0x3de9f08a	0.11422832
63	0x3d9d7201	0.0768776
64	0xbcd9c5c3	-0.026583558
65	0x3c478df2	0.0121798385
66	0x3df62c2a	0.120201424
67	0xbd561bab	-0.05227248
68	0x3cf242b6	0.029572826
69	0x3dcfb496	0.10141866
70	0x3df375da	0.11887713
71	0x3ce6efff	0.02819061
72	0x3ca97220	0.020684302
73	0x3acd92e4	0.0015684036
74	0x3daab437	0.083351545
75	0x3e093552	0.13399246
76	0xbc9fffdb	-0.019531181
77	0x3d89b1ee	0.067233905
78	0xbd7e0459	-0.062015865
79	0x3db514b9	0.08841843
80	0xbdcf93a9	-0.10135586
81	0x3d94e37b	0.07269951
82	0x3d6b7432	0.05748386
83	0xbd4c72b9	-0.049914096
84	0xbd03b6d6	-0.032156788
85	0xbd8ee400	-0.06977081
86	0x3da9290f	0.082597844
87	0x3d835c20	0.06414056
88	0x3ca7b133	0.020470237
89	0xbd87fa20	-0.066395044
90	0xbd09318a	-0.03349451
91	0xbd8327f3	-0.06404104
92	0xbce97b49	-0.02850117
93	0xbd9e2b99	-0.07723159
94	0x3df7fe58	0.12109059
95	0x3c862c1d	0.016378457
96	0xbd76a497	-0.06021556
97	0xbc814c94	-0.015783586
98	0x3cf84182	0.030304674
99	0x3c54fb53	0.0129993735
100	0x3c3f47af	0.011674806
101	0xbd83188a	-0.06401165
102	0x3bd54eb1	0.006509625
103	0x3e0e766e	0.13912365
104	0x3de98e9b	0.11404153
105	0xbe05b953	-0.13058977
106	0x3cb49b3a	0.022046674
107	0xbdb0d743	-0.08634808
108	0xbbda0c80	-0.006654322
109	0x3db7994d	0.08964787
110	0x3bf38557	0.007431667
111	0x3d95d91c	0.07316801
112	0x3d314804	0.04328157
113	0xbd6525d2	-0.05594427
114	0xbd61b5a4	-0.055104867
115	0x3e0b10d3	0.13580637
116	0xbca91a91	-0.02064255
117	0x3dda7652	0.10667099
118	0x3db55fe6	0.08856182
119	0x3cdb9b5c	0.02680748
120	0xbd4f9ba1	-0.05068553
121	0x3dfad260	0.12247157
122	0xbd718f7e	-0.058974735
123	0xbd1f163b	-0.03883956
124	0xbd9ad67c	-0.07560441
125	0x3d0457a1	0.032310132
126	0x3cea736d	0.028619492
127	0x3dc7f374	0.09763232
128	0x3bfa4117	0.007637154
129	0x3c5b8f0a	0.013400802
130	0xbd99c223	-0.07507732
131	0xbd5f51ff	-0.054521557
132	0x3c13ec6a	0.0090285335
133	0x3b869b71	0.0041078855
134	0x3d05dbab	0.032680195
135	0x3da2d013	0.07949843
136	0x3c54fd56	0.012999853
137	0xbda121ff	-0.07867812
138	0xbda1a155	-0.078921
139	0xbc950f10	-0.018195659
140	0xbdc17c50	-0.09447539
141	0x3c8d266a	0.017230231
142	0xbac7cb5b	-0.00152431
143	0x3d964df2	0.07339086
144	0x3ddaefc2	0.106902614
145	0xbe12330c	-0.14277285
146	0xbcd380c1	-0.02581823
147	0x3e279f33	0.16369323
148	0xbd25ec53	-0.04050858
149	0xbd976021	-0.07391382
150	0xbd578ddb	-0.05262552
151	0x3c00b8be	0.007856546
152	0x3a260ea1	0.00063345773
153	0x3e063355	0.13105519
154	0xbd51369b	-0.051077466
155	0xbd222e7b	-0.03959511
156	0xbb4cbbc0	-0.0031239837
157	0xbd57a3e3	-0.05264653
158	0x3d42f090	0.0475927
159	0x3db28f7b	0.08718773
160	0x3cd8364a	0.026393075
161	0x3dda61af	0.10663163
162	0xbd7d8628	-0.06189552
163	0x3b6b8678	0.0035938304
164	0x3d465f23	0.048430573
165	0x3bd30cf6	0.006440754
166	0x3b1a1f9b	0.0023517373
167	0xbd321f28	-0.043486744
168	0x3d41172c	0.04714124
169	0x3d99ec19	0.07515735
170	0xbd39c009	-0.045349155
171	0xbd70f76f	-0.05882972
172	0xbcf3521b	-0.029702237
173	0x3cd0979c	0.025462918
174	0x3de584db	0.11206981
175	0xbc37f12a	-0.011226932
176	0x3d05bef0	0.032652795
177	0x3dbe52b9	0.09293122
178	0x3d74a1f7	0.059724774
179	0x3d691f1b	0.05691443
180	0x3db77809	0.08958442
181	0xbd5498d6	-0.05190357
182	0x3e3bc648	0.18337357
183	0xbcb05eba	-0.021529544
184	0x3dbe45fb	0.092906915
185	0x3d271ed2	0.040800877
186	0x3c0b5982	0.008505227
187	0xbcbd0745	-0.023074755
188	0x3e2ea3b9	0.17054643
189	0x3cafdf8e	0.021468904
190	0x3dc0aa58	0.094074905
191	0x3e2472a4	0.16059357
192	0x3bb81cca	0.0056186663
193	0x3cb9fd96	0.022703927
194	0x3cfe9f2e	0.031081762
195	0x3dd6eeb8	0.10494751
196	0x3dcf5b9b	0.10124894
197	0xbd029c40	-0.031887293
198	0x3d61714c	0.05503969
199	0xbc54df38	-0.012992673
200	0x3e44d762	0.19222787
201	0x3dd44287	0.103642516
202	0xbd5521ef	-0.052034315
203	0xbc0766ec	-0.008264285
204	0xbd2775a6	-0.040883683
205	0xbdda474c	-0.1065813
206	0x3e3a292a	0.18179765
207	0xbd9c7d21	-0.07641054
208	0xbd63cc9b	-0.05561505
209	0x3d986886	0.07441811
210	0x3e02c06a	0.12768713
211	0x3d8e5d61	0.06951404
212	0x3e3d5c7e	0.18492314
213	0xbd2d4664	-0.042303458
214	0xbd6291d3	-0.05531485
215	0x3e0125f0	0.12612128
216	0xbd816894	-0.06318775
217	0xbcb35c1f	-0.021894513
218	0x3dc954cc	0.09830627
219	0x3d5aab95	0.05338629
220	0xbdd4b581	-0.103861816
221	0x3c0db25a	0.008648479
222	0x3d8f7faf	0.070067756
223	0x3d5b2e22	0.053510793
224	0xbc8be1e9	-0.017075496
225	0xbcff3a64	-0.031155773
226	0x3db78655	0.08961169
227	0x3cf52955	0.029926935
228	0x3ce2ec9b	0.027700713
229	0xbda54221	-0.08069254
230	0x3e019c99	0.12657394
231	0xbcfc1196	-0.030770104
232	0xbbfe728b	-0.0077651194
233	0xbc5ae7b9	-0.013360911
234	0xbe108941	-0.14114858
235	0xbc1aac2c	-0.009440463
236	0x3d84b1f9	0.06479258
237	0x3d82ddb2	0.06389941
238	0xbd0cf7af	-0.034415897
239	0x3d9b2ecc	0.07577285
240	0xbce5c1a7	-0.028046442
241	0xbcc8616e	-0.02446052
242	0x3d6c1134	0.057633594
243	0xbbb26c5c	-0.0054450464
244	0x3de158ea	0.11003287
245	0x3d05cc5a	0.032665588
246	0xbdac69d4	-0.084186226
247	0x3dc46c0b	0.0959092
248	0xbc12b305	-0.008953814
249	0x3e2502fe	0.16114423
250	0x3d2d7789	0.042350326
251	0xbcd1767d	-0.025569195
252	0x3d149047	0.036270406
253	0xbd306c36	-0.043071948
254	0x3da18c1a	0.078880504
255	0x3dec77e9	0.115463085

mu_output.weight f4 [7, 256]
0	0xbe8f2d36	-0.2796418
1	0xbd836f9b	-0.064177714
2	0xbf22aa6e	-0.63541305
3	0xbe95e24f	-0.29274222
4	0x3e40c794	0.18826133
5	0x3dbe4756	0.0929095
6	0x3c66111d	0.014042166
7	0xbe7d2739	-0.24721994
8	0xbe43f58f	-0.19136642
9	0xbdcbf739	-0.09959263
10	0xbe00d1a9	-0.12579979
11	0xbe3c8b59	-0.18412532
12	0x3d309693	0.04311235
13	0xbf36ea5e	-0.71451366
14	0xbeffc7da	-0.49957162
15	0x3d565f47	0.052336957
16	0xbe816a63	-0.2527648
17	0x3ddb9f2b	0.10723718
18	0xbd02fceb	-0.031979483
19	0xbf255725	-0.64586097
20	0xbdf7ee2d	-0.12105975
21	0x3c360269	0.011108973
22	0xbe709990	-0.2349608
23	0x3f14312d	0.57887536
24	0x3d5d87de	0.05408465
25	0x3d19f35e	0.03758561
26	0xbde5a0eb	-0.11212333
27	0xbebbf031	-0.3670669
28	0x3e63993e	0.22226426
29	0x3eb8fcc3	0.36130342
30	0x3c91360d	0.017725969
31	0x3e125510	0.14290261
32	0x3ed7b542	0.42130476
33	0x3d13a71b	0.036048036
34	0x3e5889f4	0.21146375
35	0x3d98c72a	0.074598625
36	0x3d135436	0.03596898
37	0x3921e7bf	0.00015440489
38	0xbf0c3659	-0.5477043
39	0xbeab5202	-0.33461004
40	0x3dbaec74	0.09127131
41	0x3c3bbc71	0.011458502
42	0xbedfc113	-0.4370199
43	0xbdf05421	-0.11734796
44	0x3d057ba3	0.032588612
45	0xbe101dd3	-0.14073877
46	0x3e34fe8b	0.17675225
47	0x3ed627ba	0.41827184
48	0x3ed09e09	0.4074557
49	0x3e79cb3d	0.24393936
50	0xbd777fce	-0.06042462
51	0x3e05a974	0.13052922
52	0xbcb2bc21	-0.021818222
53	0x3ea8b74d	0.32952347
54	0xbe15213b	-0.14563458
55	0xbe0a2025	-0.13488825
56	0x3e42c3b1	0.19019963
57	0xbd881b17	-0.06645792
58	0x3d15569a	0.036459543
59	0x3dd70206	0.10498433
60	0xbb6487d2	-0.0034870994
61	0xbe973c25	-0.29538074
62	0x3dd47d17	0.103754215
63	0x3efbe140	0.4919529
64	0x3dd439a1	0.10362554
65	0x3f073e8b	0.5282981
66	0xbe66780f	-0.22506736
67	0x3d713145	0.058884878
68	0x3f1c5445	0.61066085
69	0x3db24009	0.0870362
70	0x3efb6403	0.4909974
71	0x3c665e7f	0.014060616
72	0xbeef888c	-0.46783864
73	0xbf328e54	-0.69748425
74	0xbf165d29	-0.587359
75	0x3e012679	0.12612332
76	0xbd65e966	-0.05613079
77	0x3eb7e1a5	0.3591434
78	0x3cacdeb3	0.021102285
79	0xbef7621c	-0.4831704
80	0x3e183780	0.14864922
81	0x3e83f952	0.25776154
82	0xbe1a262b	-0.15053622
83	0xbc29c074	-0.010360826
84	0x3dfe2b99	0.12410659
85	0x3d415408	0.04719928
86	0xbde906f4	-0.11378279
87	0x3d68bafe	0.056818955
88	0x3f145114	0.57936215
89	0x3cdd2ae1	0.026997985
90	0xbd678ca8	-0.056530625
91	0x3d1cdb1d	0.0382949
92	0x3d3b2d39	0.045697425
93	0x3ea63248	0.32460237
94	0x3d0c194f	0.034203824
95	0xbd8a5543	-0.06754544
96	0x3e563ba4	0.20921189
97	0x3eaab842	0.33343703
98	0xbeecff84	-0.46288693
99	0xbca5625e	-0.020188507
100	0xbdb70bed	-0.089378215
101	0xbe941089	-0.28918865
102	0x3ec74da9	0.38926437
103	0x399480ad	0.0002832463
104	0x3f1e4662	0.61826146
105	0xbef453b4	-0.4772011
106	0x3e395f63	0.18102793
107	0x3e8d0ae6	0.27547377
108	0xbe3a901d	-0.18219037
109	0x3eb309a0	0.3496828
110	0xbcbaa861	-0.022785367
111	0x3e4f9937	0.2027329
112	0x3ee79264	0.45228875
113	0xbf40cfd0	-0.75317097
114	0xbd37f0b8	-0.0449073
115	0x3ee23290	0.441792
116	0x3ca66837	0.020313365
117	0xbe223fdc	-0.15844673
118	0xbf1bce4b	-0.60861653
119	0x3e5882c5	0.21143635
120	0x3eaea415	0.3410956
121	0xbdef036a	-0.11670573
122	0xbd684048	-0.05670193
123	0x3d24e41f	0.040256616
124	0xbe10e54e	-0.14149973
125	0x3ec2cb94	0.38045943
126	0xbddf7775	-0.109114565
127	0xbf0b1a9f	-0.54337496
128	0x3ea9e0e0	0.33179379
129	0xbe93acff	-0.28842923
130	0xbcca8b4b	-0.024724623
131	0xbeef4d13	-0.4673849
132	0x3bfc39e2	0.00769733
133	0xbe3fb8b9	-0.1872281
134	0x3eaa4f2d	0.3326353
135	0x3e317d1c	0.17332882
136	0xbdb970df	-0.090547316
137	0xbe94b324	-0.29042923
138	0xbd63f628	-0.055654675
139	0x3ddb46e3	0.1070688
140	0xbd0cb420	-0.034351468
141	0x3e441a57	0.19150673
142	0x3ebf9d82	0.37424856
143	0x3e879d6d	0.26487294
144	0x3d48bc94	0.049007967
145	0xbd6eae23	-0.05827154
146	0x3e181dc1	0.148551
147	0xbe7a52e0	-0.24445677
148	0x3e2d700d	0.16937275
149	0xbe9bef1a	-0.30455858
150	0xbd60c921	-0.05487931
151	0xbe4b83e8	-0.19874537
152	0x3f1fce38	0.6242404
153	0x3b8cd721	0.0042981063
154	0x3dac3174	0.0840787
155	0xbf199bbf	-0.60003275
156	0x3ee649e1	0.4497824
157	0x3cb22981	0.021748306
158	0x3ec30fc5	0.3809797
159	0xbe1a0e5f	-0.15044545
160	0x3e6130ec	0.21991318
161	0xbda7a295	-0.08185307
162	0x3d9a0099	0.07519645
163	0x3eb93414	0.36172545
164	0xbc5ead53	-0.013591128
165	0x3c89b61b	0.016810467
166	0xbe4ce5ed	-0.20009585
167	0x3ca2693d	0.019825572
168	0xbe8dd825	-0.27703968
169	0xbc2a4129	-0.010391512
170	0xbe0649b7	-0.13114057
171	0xbf0bf8cc	-0.5467651
172	0xbad5a762	-0.0016300494
173	0xbe5bd695	-0.21468575
174	0x3e5e25a0	0.2169404
175	0xbdc62e58	-0.09676808
176	0xbbedb511	-0.007254251
177	0xbd7b7f02	-0.06140042
178	0xbe1bb4bb	-0.15205662
179	0xbbd43e41	-0.006477148
180	0xbd6bad34	-0.057538226
181	0x3e948b81	0.29012683
182	0x3bb0e552	0.005398431
183	0x3f1fac9d	0.6237276
184	0x3e23b212	0.15985897
185	0xbc4de1b3	-0.012566018
186	0x3c37634b	0.011193107
187	0x3e970dd6	0.29502743
188	0x3bdaa670	0.006672673
189	0x3e4d7ec7	0.20067893
190	0x3d9cff47	0.07665878
191	0x3e9b1085	0.3028604
192	0x3e7c2636	0.24623951
193	0x3f05710f	0.5212564
194	0x3d208e0d	0.03919797
195	0xbcfdc637	-0.030978305
196	0x3c0a163b	0.008428152
197	0xbd8df0f6	-0.06930725
198	0x389ef414	7.57949e-05
199	0x3e2cef95	0.16888268
200	0x3ecad9bb	0.3961924
201	0xbd0d47c0	-0.034492254
202	0xbe644068	-0.22290194
203	0x3dd25834	0.1027073
204	0xbd0444b0	-0.032292068
205	0xbef5a3c6	-0.47976512
206	0x3e99f568	0.30070043
207	0x3d133f09	0.035948787
208	0x3e95cdb7	0.2925851
209	0x3e51f7c5	0.20504673
210	0xbead937a	-0.33901578
211	0x3e945276	0.28969163
212	0x3e6cf528	0.23140395
213	0xbe0763e0	-0.13221693
214	0xbee5b476	-0.44864243
215	0xbe024823	-0.1272283
216	0xbf025a11	-0.5091868
217	0x3c2cad3e	0.010539351
218	0xbe886c2d	-0.26645032
219	0xbdd614cd	-0.10453186
220	0xbf0bea05	-0.5465396
221	0xbd1bbc03	-0.0380211
222	0x3dddeb64	0.10835913
223	0x3ec11af5	0.3771588
224	0x3e5424f2	0.20717219
225	0x3d66615c	0.056245193
226	0x3f056f33	0.521228
227	0x3e5519c6	0.20810613
228	0x3e92d284	0.28676236
229	0xbe0d054d	-0.13771553
230	0x3e97c3f1	0.2964168
231	0xbf11e05d	-0.56982976
232	0xbb6222fb	-0.0034505713
233	0xbf0b6547	-0.5445141
234	0x3ea5ba78	0.32368827
235	0x3d8a7b69	0.0676182
236	0x3e5ad4e6	0.21370277
237	0x3e5b6e95	0.21428902
238	0x3e30baa1	0.17258693
239	0x3ec000dd	0.3750066
240	0x3f2cb246	0.67459524
241	0xbc138d21	-0.009005816
242	0x3ea44b3f	0.32088658
243	0xbd698867	-0.05701485
244	0xbeea4642	-0.45756727
245	0xbb018fc0	-0.001976952
246	0x3d73e3e4	0.059543505
247	0xbe3a1e5b	-0.18175642
248	0xbea98486	-0.3310892
249	0xbec6c804	-0.38824475
250	0x3e2a773d	0.16647048
251	0xbebd99e5	-0.37031475
252	0xbe5fa384	-0.2183972
253	0x3df60592	0.12012781
254	0x3c6a0036	0.014282277
255	0x3dc4cab0	0.09608972

mu_output.bias f4 [7]
0	0x3e1491b8	0.14508712
1	0xbd170699	-0.036871526
2	0xbe1c011d	-0.152348
3	0xbcca6481	-0.024706127
4	0x3e142037	0.14465414
5	0x3c0aac33	0.008463907
6	0xbdd04195	-0.10168759

log_std_output.weight f4 [7, 256]
0	0x3b5fc43c	0.0034144064
1	0xbce66740	-0.028125405
2	0xbd1521ae	-0.036409073
3	0x3cc293d8	0.023752138
4	0xbb4f1ea7	-0.0031603964
5	0xbd10b44c	-0.035328194
6	0xbcc39ef1	-0.0238795
7	0x3c917392	0.017755304
8	0x3d8824b2	0.06647624
9	0x3cc8a01f	0.024490414
10	0xbc8c30e6	-0.01711316
11	0xbd40cc95	-0.047070105
12	0xbd3c3c1b	-0.04595576
13	0xbd24064d	-0.04004507
14	0xbc3e549c	-0.011616852
15	0x3d635c32	0.055507846
16	0xbcd25ef6	-0.025680047
17	0xbcf9b016	-0.030479472
18	0xbd02769a	-0.03185139
19	0xbda8cb36	-0.082418844
20	0xbd5614a7	-0.05226579
21	0x3b1df5ef	0.0024102887
22	0x3c4b3c51	0.012404517
23	0x3c19eed5	0.009395321
24	0xbd59c8b5	-0.053169925
25	0xbd40d0d8	-0.04707417
26	0xbbd397a4	-0.006457286
27	0x3cdab12b	0.026695808
28	0x3cea2573	0.02858231
29	0x3bc8fab9	0.006133404
30	0x3d02dbc4	0.031947866
31	0xbcb587b5	-0.022159437
32	0xbca2344c	-0.019800328
33	0x3c0467cb	0.008081387
34	0xbc2365c2	-0.009972991
35	0xbc9f696c	-0.019459449
36	0xbd3a2dbb	-0.04545377
37	0x3bfd22cd	0.007725096
38	0x3d95ab55	0.073080696
39	0xbd17047d	-0.036869515
40	0xbd5811d0	-0.052751362
41	0x3bbf622a	0.0058405595
42	0xbca292ba	-0.019845355
43	0xbcc09ff4	-0.023513772
44	0x3cfc1174	0.030770041
45	0xbbd3863a	-0.00645521
46	0x3b027386	0.0019905283
47	0xbdb24231	-0.08704031
48	0x3da3ee88	0.080044806
49	0xbdcc722c	-0.09982714
50	0x3cc4ecfe	0.024038788
51	0x3aaf4b08	0.0013373801
52	0x3d5cded5	0.053923447
53	0xbd056624	-0.032568112
54	0xbc9e6a6e	-0.019337859
55	0xbce242fa	-0.027619828
56	0x3b74ad44	0.003733472
57	0xbe085d3a	-0.13316813
58	0x3bc7eef9	0.006101486
59	0xbd3c303e	-0.045944445
60	0xbd110294	-0.03540285
61	0xbc48a4d9	-0.012246334
62	0xbcd4f879	-0.025997387
63	0xbd0e7ea0	-0.034788728
64	0xbd031289	-0.0320001
65	0x3c38a123	0.011268887
66	0x3c1da61b	0.009622122
67	0x3dd5bbe7	0.1043623
68	0x3dbcc81e	0.09217857
69	0xbc98d847	-0.018657817
70	0x3ba2473c	0.0049523395
71	0xbd37b1f7	-0.044847455
72	0x3bc0c105	0.0058823847
73	0x3ddb8542	0.10718776
74	0x3d944729	0.07240135
75	0x3c9c9c51	0.019117506
76	0x3d039f42	0.032134302
77	0x3a843327	0.0010086045
78	0x3ccecb86	0.025243532
79	0x3c6e8707	0.01455856
80	0xbd1dea13	-0.03855331
81	0xbc056794	-0.008142371
82	0x3c95bfe2	0.018279973
83	0xbd33a859	-0.04386172
84	0x3d44873f	0.047980543
85	0xbcff6f6a	-0.031181056
86	0xbcc4738d	-0.02398088
87	0xbd82ed81	-0.063929565
88	0x3d9177fb	0.071029626
89	0x3cc1cb88	0.023656622
90	0xbbd6b7be	-0.0065526655
91	0x3d66674a	0.056250848
92	0xbcfe9a71	-0.031079503
93	0xbd251e12	-0.04031188
94	0xbd078c94	-0.03309305
95	0x3b1e7ac7	0.0024182068
96	0xbd563459	-0.052296016
97	0x3c8abc57	0.01693551
98	0x3d19be86	0.037535213
99	0xbc204554	-0.009782154
100	0xbc900bd1	-0.01758376
101	0xbcf8681f	-0.030323086
102	0xbc990274	-0.018677928
103	0x3cd4efe6	0.025993299
104	0x3b8b59e5	0.0042526596
105	0x3d33e603	0.04392053
106	0xbdb3c9e1	-0.0877874
107	0x3db1a72b	0.08674463
108	0xb938c9d8	-0.000176228
109	0xbd647965	-0.055779833
110	0x3d216bd4	0.039409474
111	0xbc25ec90	-0.010127202
112	0xbce60d5c	-0.028082542
113	0xbbd50b3d	-0.006501584
114	0x3d48a71f	0.048987504
115	0xbd35f1f3	-0.044420194
116	0xbcaec10f	-0.021332292
117	0xbd232135	-0.03982659
118	0x3d90062a	0.07032426
119	0xbc4e3c82	-0.012587668
120	0xbbb7daeb	-0.005610814
121	0x3adc0544	0.0016786237
122	0xbc70ea70	-0.014704332
123	0x3ca2b2d6	0.019860666
124	0x3ca356e2	0.01993889
125	0x3c9f7108	0.019463077
126	0xbdf78ead	-0.1208776
127	0x3d6e50e4	0.058182612
128	0x3d25de44	0.040495172
129	0xbcdbaa23	-0.026814526
130	0xbc1237e7	-0.008924461
131	0xbd1d1d31	-0.038357917
132	0xbd8c7978	-0.06859106
133	0x3bb7a2a9	0.0056041074
134	0xbbb05905	-0.0053817057
135	0x3d81d686	0.06339745
136	0x3c8f8298	0.017518327
137	0xbd0968b5	-0.033547122
138	0xbb22997b	-0.002481072
139	0xbd49955a	-0.0492147
140	0x3d265c30	0.04061526
141	0x3b993dde	0.0046765646
142	0x3d671019	0.056411836
143	0x3ae30974	0.0017321543
144	0xbd2b0f55	-0.04176267
145	0xbc477d3b	-0.012175853
146	0x3d02153b	0.03175853
147	0xbd99b070	-0.07504356
148	0x3c7c9232	0.015415715
149	0x3d1c3497	0.03813609
150	0x3c079fd7	0.008277855
151	0x3bfdc980	0.007744968
152	0x3d227bd6	0.03966888
153	0xbbf4f44a	-0.0074754106
154	0xb9f13fb7	-0.00046014573
155	0x3d746e42	0.059675463
156	0xbcf87e2c	-0.030333601
157	0x3d15532b	0.03645627
158	0xb998d801	-0.00029152635
159	0x3c06ae11	0.008220212
160	0x3d31540f	0.043293055
161	0xbcb2dbfb	-0.02183341
162	0x3c6391eb	0.01388977
163	0x3d4b5394	0.049640253
164	0xbd3d1081	-0.046158317
165	0xbd37a963	-0.044839274
166	0xbd1171e5	-0.03550901
167	0x3c8a2eb7	0.016867978
168	0xba02a088	-0.00049830275
169	0x3d801cbe	0.06255482
170	0xbc19d62b	-0.0093894405
171	0x3bfca5b3	0.0077101826
172	0x3d3299b5	0.043603618
173	0xbdade366	-0.084906384
174	0x3d124837	0.0357134
175	0xbcbd69c3	-0.02312172
176	0xbc89f476	-0.0168402
177	0x3ad05d40	0.0015896931
178	0x3d03f7ff	0.03221893
179	0xbd50e8f3	-0.051003408
180	0xbd1db843	-0.038505804
181	0x3d93e70e	0.072218046
182	0x3bedda20	0.0072586685
183	0x3b86d2c9	0.004114483
184	0xbd741820	-0.05959332
185	0xbd9bba95	-0.07603947
186	0x3d5971e1	0.05308712
187	0xbd228186	-0.039674304
188	0xbde8314d	-0.113375284
189	0x3d415e07	0.047208812
190	0xbc54258f	-0.012948408
191	0xbc5ebac9	-0.013594338
192	0xbd1b91fa	-0.03798101
193	0xbbbffb64	-0.0058588255
194	0x3d00387f	0.03130388
195	0x3c922d78	0.017843947
196	0xbd7a4220	-0.061098218
197	0x3d35f7b1	0.04442567
198	0x3d114973	0.035470437
199	0x3d0b4ab2	0.034006782
200	0xbcc3340e	-0.023828533
201	0x3d113a95	0.03545626
202	0x3cd9ee12	0.026602779
203	0xbc15731c	-0.0091216825
204	0xbcca9a1f	-0.024731694
205	0xbc373310	-0.011181608
206	0xbd24da9e	-0.040247552
207	0x3c21352f	0.00983934
208	0xbd0a03b8	-0.033694953
209	0xbb7bd6dc	-0.0038427627
210	0xbcd827d8	-0.026386186
211	0xbd25ecf3	-0.040509176
212	0xbd3202cc	-0.0434597
213	0xbd103226	-0.035204075
214	0x3d43882f	0.047737297
215	0xbe092999	-0.13394774
216	0x3cc944bf	0.024568914
217	0xbd62ee8d	-0.05540328
218	0x3ca5a0c3	0.020218259
219	0x3c4de26d	0.012566191
220	0xbc3f6688	-0.01168216
221	0xbcbce6e5	-0.023059318
222	0x3d365935	0.04451867
223	0x3dae06af	0.084973685
224	0xbcb209e8	-0.02173324
225	0x3c60f7e9	0.013730981
226	0xbc77d098	-0.015125416
227	0xbd01b3e3	-0.031665694
228	0x3c5ce5b3	0.013482499
229	0x3cdee9df	0.027211128
230	0xbc88d657	-0.016703768
231	0x3d58922a	0.052873768
232	0xbcdcf144	-0.026970513
233	0x3d65cb47	0.056102064
234	0x3bf5370c	0.0074833687
235	0x3d859303	0.06522181
236	0xbd928038	-0.07153362
237	0x3d05f703	0.03270627
238	0xbd8ab4c2	-0.06772758
239	0x3b19628b	0.0023404683
240	0xbd836300	-0.06415367
241	0x3d6e4dfe	0.058179848
242	0xbd67c104	-0.05658056
243	0xbd3093d4	-0.04310973
244	0xbac83952	-0.0015275872
245	0x3bf3d9a6	0.007441717
246	0x3d5bd232	0.053667255
247	0x3cedddd4	0.02903644
248	0xbcdfab55	-0.027303377
249	0xbac97923	-0.0015371185
250	0xbd015a39	-0.031580184
251	0x3cb88e7a	0.022528876
252	0xbd090e6c	-0.03346102
253	0xbb19746b	-0.0023415338
254	0xbd02fd09	-0.031979594
255	0xbcff4609	-0.031161325

log_std_output.bias f4 [7]
0	0xbeb811e3	-0.35951146
1	0xbeb7857d	-0.3584403
2	0xbed52627	-0.4163067
3	0xbeeead0f	-0.46616408
4	0xbece1bb6	-0.40255517
5	0xbee2612a	-0.44214755
6	0xbe98eaf1	-0.29866746
