checkpoints/model_state_dict_sac_Panda_Lift_3.pth (torch, 329272 bytes, 8 tensors)

fc1.weight f4 [256, 46]
000000 6f 85 e0 bf ce 88 0f 3f f3 da d1 3d 51 14 f2 bd
       -1.7540721 0.5606812 0.102468394 -0.11820281
000010 35 78 f8 3e 50 b5 82 bd b4 a6 5a 3f a2 1e 8f bf
       0.4852921 -0.06382239 0.8541062 -1.1181223
000020 b5 e7 e3 3e cc 55 29 3f 9e 5f 05 3e ec 04 04 3f
       0.44512716 0.6614654 0.13024756 0.5157001
000030 d3 e2 8a be e3 fe f6 be e7 0e f1 3e 9f 28 23 3f
       -0.27126178 -0.48241338 0.47081682 0.6373386
000040 46 40 4b 3d 73 19 9a be 99 df bc be eb 72 81 be
       0.049621843 -0.3009754 -0.3688934 -0.25282988
000050 f7 23 88 3e 5e 45 22 be ae bd 27 ba a5 3f 7e 3e
       0.2658994 -0.15846774 -0.0006398809 0.24828966
000060 9d 21 20 be f7 23 4e 3e 2a 8e e2 bc 38 67 5d be
       -0.15637822 0.20130907 -0.02765568 -0.21621406
000070 e1 10 5c 3c 93 26 8f bc c0 74 4d bc 68 dc a6 bf
       0.013431759 -0.017474448 -0.012540042 -1.3036013
000080 66 a8 39 3e ed 1b 11 3c e2 4e 25 3d 57 09 3d 3f
       0.18130645 0.008856756 0.04035843 0.73842376
000090 b9 2a 00 be 07 8b 04 3d 18 d4 cb bd 96 42 c0 be
       -0.12516297 0.03235915 -0.09952563 -0.375508
0000a0 48 c8 16 3f 65 36 15 3f 3b 63 76 bf 9d 1e 41 40
       0.58899355 0.58286124 -0.96245164 3.0174935
0000b0 f9 df b6 3e 47 bb 55 be 0b 31 23 bf 3f ab 16 40
       0.35717753 -0.20872222 -0.6374671 2.354202
0000c0 fc 2b df be ec 98 81 bf e0 f5 70 3f 0f 99 07 bb
       -0.43588245 -1.0124793 0.94125175 -0.0020690595
0000d0 5c 07 22 3f 9d 59 b7 be 8c be 1a 3f 75 14 49 3f
       0.6329248 -0.35810557 0.60447 0.7854684
0000e0 f2 13 97 3d 4b 3b c6 be 0b 4b 42 be bd 5e 9d 3e
       0.07376851 -0.38717112 -0.18973939 0.30736342
0000f0 9b 4d 03 be a8 a7 db 3d 5b 41 7a be cd f2 5f 3d
       -0.12822573 0.10725337 -0.24438994 0.054674912
000100 1e a1 e0 be 4f 3c 5f be 45 08 b5 be e3 87 db 3e
       -0.43872923 -0.2180035 -0.35357872 0.4287711
000110 13 7b f5 be 64 2c 55 bf 54 47 e2 3c 71 02 dc 3d
       -0.4794546 -0.8327086 0.027621903 0.10742653
000120 8d 63 6a 3d 95 2e 2c bc c1 29 56 3d 64 bb 5f 3c
       0.057223845 -0.010509153 0.052285913 0.013655517
000130 f5 c0 4f 3d 3b 7c 66 be b3 37 d3 3f 4c 91 c3 be
       0.050721128 -0.22508328 1.6501373 -0.3819679
000140 c5 75 8d 3e c3 77 13 bf f9 f8 08 3e d1 55 24 bf
       0.27628914 -0.57604617 0.13376226 -0.64193445
000150 68 b7 96 3e 02 c5 41 3f 4a 62 91 3f 9d 5e 3c bf
       0.29436803 0.75691235 1.135812 -0.7358187
000160 27 b2 80 3f d7 22 12 c0 64 35 50 3d b1 eb e3 bd
       1.0054368 -2.2833765 0.050832167 -0.11128939
000170 a9 f6 9c be ac 0f 73 bf 38 48 c7 bd e9 25 29 bf
       -0.30656937 -0.9494579 -0.097305715 -0.6607347
000180 a7 f3 8d 3f f0 a1 28 bf 9b 3d 98 3e 49 5e 35 bf
       1.1089982 -0.65872097 0.297345 -0.7084699
000190 6e a7 ac 3d 6f b2 03 3e 4a 2e 18 3e b6 2b b9 be
       0.08430372 0.12861036 0.14861408 -0.3616616
0001a0 94 cd 38 be 3b 2c 6c bd 6c e2 55 be ee 4f 8a 3c
       -0.18047172 -0.05765937 -0.20887154 0.016883817
0001b0 3d d2 0f bf 6b 0a 5b bf e6 80 09 be 31 ed 38 bf
       -0.56180173 -0.8556277 -0.13428077 -0.72236925
0001c0 aa b5 fa bd cb 81 dd bd 5b 84 5b bf b3 98 99 3e
       -0.12241681 -0.10815772 -0.85748833 0.29999313
0001d0 5e 1d 12 be dc 1e a0 bc 1c 6a ab bd c5 c0 55 3d
       -0.14269015 -0.019545965 -0.08369848 0.052185792
0001e0 67 bf f9 bd 52 ac 12 3e cb 91 bf 3d 29 70 17 3f
       -0.1219471 0.14323547 0.0935398 0.5915552
0001f0 07 97 41 bf cd a6 a0 bd a2 a5 85 be de 84 b5 3e
       -0.75621074 -0.07844315 -0.2610293 0.35452932
000200 e0 a0 c5 bd 94 4a 54 be 1a d1 03 3f 57 f4 59 be
       -0.09649825 -0.20731574 0.5149094 -0.21284615
000210 e3 a3 90 3d a6 b2 af 3e 8b 61 06 40 b0 29 10 c0
       0.07062509 0.34315985 2.0997036 -2.2525444
000220 3c 86 36 3f 0b f4 1c bf 14 f6 13 bf 8c f7 03 3f
       0.71298575 -0.6130988 -0.5779736 0.515496
000230 5c d3 9d be 33 de 7e be 66 9a 90 3d fb bd 26 bf
       -0.30825317 -0.2488945 0.07060699 -0.6513364
000240 e6 ef 1b 3f 78 4f 32 c0 8a a0 d8 3e a6 5c 5c 3f
       0.6091293 -2.7861004 0.42309982 0.8607887
000250 10 04 c8 3d 00 bc 64 3f 32 3a a3 3e 82 2b d9 be
       0.097664 0.89349365 0.31880337 -0.42416006
000260 0b f1 e7 3d f6 7f 41 be 76 fb e3 be 8b 1f 08 3f
       0.11325272 -0.1889647 -0.44527787 0.5317313
000270 5c b7 82 bd 72 e0 b8 3e 61 8e e0 be 9d 66 85 3e
       -0.06382629 0.36108738 -0.43858626 0.2605485
000280 5a 18 4b 3f 3e 08 2c be 62 c1 81 bd b4 69 2a 3e
       0.7933403 -0.16800019 -0.06335713 0.16641885
000290 48 6e 26 3d 4d f9 d9 bd 11 8e 73 bc 23 04 c8 3d
       0.040632516 -0.106432535 -0.014865414 0.09766414
0002a0 f8 5a 98 bd fd 20 9f 3f 96 9e 9e 3e a6 42 d2 be
       -0.07439226 1.2431942 0.30980366 -0.41066474
0002b0 cb ea 0b bf 6c 0c 8e be 88 c3 38 bf c4 fe 45 be
       -0.5465514 -0.27743852 -0.72173357 -0.19335467
0002c0 94 fa 0b bf 0f d8 8e 3d 13 61 1c bf a1 45 8b bf
       -0.54679227 0.06974804 -0.61085624 -1.0880624
0002d0 35 55 e8 be 3d b0 3c 3d 34 9e d5 3e 9e 68 59 be
       -0.45377508 0.04606651 0.41722262 -0.21231315
0002e0 ac 19 1a 40 89 77 e7 3f 75 8a 94 be 2b d5 c1 3e
       2.407817 1.8083354 -0.29011884 0.37857947
0002f0 99 7f e5 3e e3 33 20 3e f9 68 aa be 6d 08 e2 3f
       0.44823912 0.15644793 -0.33283213 1.7658821
000300 fe b8 0d 3f 31 41 0e 40 b4 72 39 be 98 fa bb 3d
       0.553604 2.222729 -0.18110162 0.09178656
000310 3b c1 46 be 2d 04 c6 3d 17 23 66 be 2a e6 89 3d
       -0.19409649 0.09668765 -0.22474323 0.067333534
000320 f4 66 a1 3d 55 97 69 3e e7 03 5d 3e 89 7c 2c 3f
       0.07880965 0.22811635 0.2158352 0.67377526
000330 38 46 09 bf f8 2b 17 be d5 f6 16 3f 5d 59 69 be
       -0.5362277 -0.14762866 0.58970386 -0.22787996
000340 99 5f a9 bc 6c 9e 1f 3e cb a0 be bd 18 51 2c bd
       -0.020675467 0.15587777 -0.093080126 -0.042069525
000350 aa b3 c1 3d a5 36 99 be 3a 21 e2 bd bf de 91 3f
       0.09458096 -0.29924503 -0.11041494 1.1396102
000360 82 67 b0 3e 05 8f e0 be 03 f2 6a 3e 6b 96 9d 3e
       0.3445397 -0.43859115 0.22943883 0.30778822
000370 c0 dd f1 be bd fa 6c be c0 a0 3c 3f ac cb 47 3f
       -0.47239494 -0.23142524 0.73682785 0.78045154
000380 12 67 65 bf b7 9a 04 bf 0d 12 aa 3f 92 d3 13 c0
       -0.896104 -0.51798576 1.3286759 -2.3097882
000390 03 52 60 3f 1a 8a 26 3d ba 6d e1 3f 66 99 ee 3e
       0.8762514 0.040659048 1.7611611 0.4660141
0003a0 33 d6 1b bf 5c db 2a 3f 59 6e 85 3f e1 dc 73 3f
       -0.6087372 0.66740966 1.04243 0.9525891
0003b0 e2 aa 98 bf 65 ba d7 3f 2f d2 61 3e 4a 37 b4 3e
       -1.1927149 1.6853758 0.22052835 0.35198432
0003c0 bd f7 23 3d c3 90 d5 bf 1c 15 2a be c0 d9 e9 3e
       0.040031184 -1.6684803 -0.16609615 0.45673943
0003d0 98 3a 2a 3e 1b bb 93 3d 49 ed 94 3e 2b ee 34 bd
       0.16623914 0.07213422 0.29087284 -0.044172447
0003e0 30 98 00 be 24 5c d8 be b4 af 55 bc e5 64 43 bd
       -0.12558055 -0.42257798 -0.013042379 -0.047703642
0003f0 7a 48 8e 3e 50 b1 91 3e 8f bb b1 3b 4f 75 8b 3e
       0.2778967 0.2845559 0.00542397 0.27237937

fc1.bias f4 [256]
000000 a0 65 8e be 3b f7 48 3c 9f f5 71 be ee 9a 0c 3c
       -0.2781191 0.012265976 -0.23628853 0.00858186
000010 b2 5e 0c be 93 a1 c0 be f6 8d 86 bc 71 1e b9 3d
       -0.13707998 -0.3762327 -0.016425114 0.09039009
000020 65 89 9b bd db 8f 95 be 73 02 b1 bd 93 c4 1e be
       -0.07594565 -0.29211316 -0.08643045 -0.15504675
000030 4d ed b0 be 5c 2d 8a be c8 53 e4 3d 50 3f e5 bd
       -0.34556046 -0.2698773 0.111487925 -0.111937165
000040 43 73 4a be 4b 1d 36 be 26 6f 25 be 0b 05 f1 3d
       -0.19770531 -0.17784612 -0.16155681 0.1176854
000050 4b 39 19 bd c6 24 0e be 81 1b ae be 89 f7 86 be
       -0.037408154 -0.13881215 -0.3400536 -0.2636073
000060 c0 21 df 3c 5b ea cd be 42 a9 f6 be fa 68 6c be
       0.027237773 -0.40217862 -0.48176008 -0.2308692
000070 70 16 ad be 35 92 a6 be 58 f4 05 be ec d1 5e be
       -0.3380618 -0.32533422 -0.13081491 -0.21759766
000080 6d 90 0f 3e 6b 0f bd be 5c 16 1e be 36 b4 46 be
       0.14019938 -0.36925825 -0.15438217 -0.19404683
000090 63 44 ca be da f6 c0 be 08 55 80 be c3 42 83 be
       -0.395053 -0.37688333 -0.25064874 -0.25636873
0000a0 19 98 e7 bd e6 a3 86 be e9 86 4c bc ce 2c c3 be
       -0.11308307 -0.2629692 -0.012483337 -0.3812012
0000b0 4e 8c 14 be 46 f6 b0 be e2 9b be be 69 7e 93 be
       -0.14506647 -0.34562892 -0.37228304 -0.2880738
0000c0 af f4 f7 be 7b e8 8f bd 1b 61 2a be 43 55 b2 be
       -0.48428866 -0.07026764 -0.16638605 -0.34830675
0000d0 cf e1 c5 be a6 8f c7 be 23 a2 0d be e0 d8 01 bf
       -0.3864884 -0.38976783 -0.13831381 -0.5072155
0000e0 3c 3e 92 be a3 1f ad be cf d3 e5 be 4f a9 92 bd
       -0.28563106 -0.338132 -0.4488816 -0.07161199
0000f0 0d d4 dd be f6 d9 5b be a5 eb 60 be e2 24 34 be
       -0.43325844 -0.21469864 -0.21964891 -0.17592195
000100 9f 24 39 be 5e 6c f6 be 01 66 d9 be db b7 8a be
       -0.18080376 -0.48129553 -0.42460635 -0.27093396
000110 27 65 ec 3d f6 94 e7 be bf cd 19 be d5 5c 0d bd
       0.11542731 -0.45230836 -0.15019892 -0.03451236
000120 ca 36 84 be 5d 37 fa be 0c dd 9b be 75 98 1a 3e
       -0.2582305 -0.48870364 -0.30442083 0.1509722
000130 47 d8 ea 3c ce a1 0f be 76 3f 90 be 36 93 84 be
       0.028667582 -0.14026567 -0.28173417 -0.25893563
000140 ca 76 35 be ec 66 2b be 91 82 18 be a9 91 2b 3d
       -0.17721096 -0.1673848 -0.14893557 0.04188696
000150 94 12 d1 bd fd b1 c4 be 42 46 fa be 3b 93 6d bd
       -0.102086216 -0.38417044 -0.48881727 -0.058001738
000160 4c 22 15 bf 9b c6 9e be 44 9d df bd 9b df d3 be
       -0.5825546 -0.310109 -0.10918668 -0.41381535
000170 0e 3b 4a be 2c 0c dc be 5f 6e 75 be 74 10 74 be
       -0.1974909 -0.42978036 -0.23967884 -0.23834401
000180 8d 5e cb bd 2a d7 ac be 56 d4 27 be 65 45 9e be
       -0.099301435 -0.33757907 -0.16389593 -0.3091232
000190 12 f4 97 be ea 66 43 bd a9 da 9f be e0 4a 79 bd
       -0.29678398 -0.04770557 -0.31221512 -0.060862422
0001a0 88 8d 81 3e 0c 57 ac be 8d 7c 51 be e4 6b aa be
       0.25303292 -0.33660161 -0.20457669 -0.3328544
0001b0 89 be 87 be 13 83 1d be b8 b9 c6 be 43 7f f0 3d
       -0.26512554 -0.15382032 -0.38813567 0.11743023
0001c0 ae 4d 62 be 8b 09 94 be 35 e0 1b 3e 9c 40 69 be
       -0.22099945 -0.2891353 0.15222247 -0.22778553
0001d0 37 d7 44 be f4 8a 36 bf 8b 58 b0 3d be 0e 1b 3d
       -0.19222723 -0.71305776 0.08610638 0.037855856
0001e0 35 17 8c bd f9 f7 42 be 81 1b 00 3d 7e 7e 0a 3d
       -0.06840364 -0.19039907 0.03127623 0.03381204
0001f0 e6 a6 c5 be 7b 21 b0 be f1 c8 0b be 87 3b ba be
       -0.38603896 -0.34400544 -0.13650872 -0.3637354
000200 2c 83 8d 3d 0c 89 ba be ec dc 06 bf 51 1c 9b bd
       0.06909785 -0.36432683 -0.5268085 -0.0757376
000210 65 d5 9b be 20 5f 26 bd e0 16 55 bd ee a7 e5 be
       -0.30436245 -0.040618062 -0.05202377 -0.44854683
000220 e2 bd 8c 3e 29 f6 d1 be f7 0e ad bd 4d 1f 7f be
       0.2748862 -0.41008118 -0.0845012 -0.24914284
000230 40 e1 eb bd 91 ce 35 bd 95 c5 20 be c2 5d c9 bd
       -0.115175724 -0.04438645 -0.15700372 -0.09832336
000240 d6 97 c4 bd 2e c0 64 be 6d 25 31 be f8 3c ed 3d
       -0.09599273 -0.22338936 -0.17299433 0.115838945
000250 3e 25 49 be ad 45 93 be 67 14 df bd fe c1 96 be
       -0.19643113 -0.28764096 -0.10892563 -0.2944488
000260 f2 ef 8f be b9 a4 88 be 1b b6 64 be 3c 55 f1 bd
       -0.2811275 -0.26688173 -0.22335093 -0.11783835
000270 03 91 bd be a3 aa 48 be 0a 6c 96 bd 22 44 68 be
       -0.37024698 -0.19596343 -0.073448256 -0.2268224
000280 6d 6e bc bc 14 9c c0 be 8b e6 cb be cb bb e9 be
       -0.023001874 -0.37619078 -0.39824328 -0.45651087
000290 ce ef 4b be d0 37 44 be 79 01 8a bd 75 84 a5 bd
       -0.19915697 -0.19161916 -0.06738562 -0.08081905
0002a0 51 95 75 be 03 cb 1b 3d 3c 63 e3 bd 6b cb 4d be
       -0.23982741 0.038035404 -0.11102912 -0.20097129
0002b0 5e ab b8 be b1 18 a8 be 87 8c 2b be 6b 5c e9 bd
       -0.36068243 -0.32831338 -0.16752826 -0.113945805
0002c0 93 46 09 3c 63 de 3c be 79 ee ea be 0c 87 4f be
       0.008378643 -0.18444209 -0.45885065 -0.2026636
0002d0 83 5f b5 be ce 77 e1 be ea fb f9 3d d9 95 47 3e
       -0.35424432 -0.44036716 0.12206252 0.19490756
0002e0 5f d2 26 3c 17 e8 47 bd f4 d9 77 bc ae 98 b6 be
       0.010181992 -0.048805322 -0.015127648 -0.3566336
0002f0 c4 23 d2 bd 99 49 a3 be 8b 82 52 3c 22 b3 50 bc
       -0.10260728 -0.31892088 0.012848507 -0.012738021
000300 88 96 4f be 42 f5 0e bd 61 0c 03 bd f2 69 79 be
       -0.20272267 -0.034901865 -0.031994227 -0.24356821
000310 7c 94 8f bb 37 85 0a be 1c 31 6d bd 32 ce 8d bd
       -0.0043817144 -0.1352738 -0.057908162 -0.06924094
000320 69 10 d5 bc bf 8c af be 41 51 03 bf e8 1f 9e be
       -0.026008802 -0.34287068 -0.5129586 -0.30883718
000330 81 65 cf bd ad d1 b2 be e8 b7 a5 be 08 69 b1 be
       -0.10126782 -0.34925595 -0.32366872 -0.34650445
000340 a1 50 74 be cb d1 9f bd 68 b3 00 bf 33 f6 8d be
       -0.23858882 -0.07803687 -0.5027375 -0.27726898
000350 d5 7a 42 be 5e 93 d3 bd 73 a4 02 3c 0c 5f db be
       -0.18992169 -0.103308424 0.007973778 -0.42845953
000360 a4 04 87 3d 0e fc b6 be b3 a0 0b be 37 07 cb be
       0.06592682 -0.35739177 -0.1363552 -0.39653942
000370 5b e2 d1 be 2f b6 56 bd 57 47 60 3b 30 30 0a be
       -0.40993008 -0.052419838 0.003422221 -0.13494945
000380 80 94 1c 3c d4 06 62 be 17 05 e6 be 52 54 47 be
       0.0095568895 -0.22072917 -0.44925758 -0.1946576
000390 e0 dd 49 be 07 26 92 bd 34 4c e2 bd 5c e2 83 be
       -0.19713545 -0.071361594 -0.11049691 -0.25758636
0003a0 d1 8e 97 be ed ae ee 3c a0 a5 57 be 88 86 14 3c
       -0.29601148 0.029136145 -0.21059275 0.009065278
0003b0 ad ae 98 be 92 d9 8f be 8f 5b 4a be 91 8c 8c 3d
       -0.29820767 -0.2809568 -0.1976149 0.068627484
0003c0 70 11 22 bd 9c f8 ba bd 9a b5 03 bf 4e 76 a7 bd
       -0.03956741 -0.0912945 -0.51448977 -0.08176862
0003d0 3e 86 ab be 5a f7 e6 bd 4e a8 15 be a4 df 51 be
       -0.33500856 -0.11277647 -0.14614984 -0.20495468
0003e0 bc 1c ec be 9f eb 2d be fc 2c 83 be 6a 65 dd be
       -0.46115673 -0.16984414 -0.25620258 -0.43241435
0003f0 a7 13 fb be 4b 5f ad be de 7d 0d be 17 5b cc be
       -0.4903843 -0.33861765 -0.13817546 -0.39913246

fc2.weight f4 [256, 256]
000000 13 2c 21 3e da 3e 74 be a2 0d 86 be fb eb 2b 3f
       0.15739469 -0.23852101 -0.26182276 0.6715695
000010 d4 6b f9 3d 29 1f da be 14 f7 84 bf 76 ce c4 3d
       0.1217877 -0.42601898 -1.0387902 0.09609692
000020 b5 40 5b bf 3e 34 5a bf 97 a2 0a 3f 03 6f c3 bf
       -0.8564561 -0.85235965 0.5415434 -1.5268253
000030 e4 ae 47 3e 45 5d b3 be 73 43 e7 3e e1 25 c4 be
       0.19500309 -0.35032097 0.45168647 -0.3831015
000040 9b f0 fb bd 32 f5 e4 3d cc a6 be bd a5 05 11 bf
       -0.12301751 0.1117958 -0.09309158 -0.5664924
000050 41 7f 09 bf 75 70 8c 3e 2c d3 d8 3f f8 fd 2b 3e
       -0.537098 0.27429548 1.6939445 0.167961
000060 e1 f0 8f bd 31 43 24 3f 78 0e 8d be 01 06 5d be
       -0.07028366 0.64165026 -0.275501 -0.21584322
000070 1b 2b 66 3d d0 ae 70 3f 10 55 c2 bd 1a f6 2b bf
       0.056193452 0.9401674 -0.09488881 -0.67172396
000080 ae fe 1f 3f a9 4a 74 3c 5f ff cd 3d bc 8b 1c bf
       0.62497985 0.0149103785 0.10058474 -0.6115072
000090 d6 d2 40 be de 6d 0c bd 57 2e 10 3f ab 43 23 bf
       -0.18830428 -0.034284465 0.5632071 -0.6377513
0000a0 c1 3b 86 be 92 b1 ad 3e 25 b4 72 bf 33 ae 16 3f
       -0.26217464 0.33924538 -0.9480613 0.58859557
0000b0 dd ea d9 3d 20 c1 8c 3e 35 46 8d 3e 43 a6 b3 3e
       0.106405 0.27491093 0.27592626 0.35087785
0000c0 4e 1d 69 bf 16 fe b0 be 3f c5 86 3f b8 54 7a bf
       -0.9106034 -0.34568852 1.0528945 -0.9778552
0000d0 61 8f e1 be 1b 7e e4 3e dd c6 9a 3d d2 60 43 be
       -0.44054702 0.4462746 0.075574614 -0.19079903
0000e0 7d ff f4 bf f2 7e f1 bd 76 6e e8 bd 16 9b 36 bf
       -1.9140469 -0.11791791 -0.11349194 -0.7133039
0000f0 c1 1c 38 be 54 5a c6 3e a5 c0 90 3e b9 5a de 3e
       -0.17979719 0.3874079 0.28271976 0.4342859
000100 dc cc a0 bf c1 c5 67 3e c8 e0 75 bf 3e 54 77 3d
       -1.2562518 0.22634031 -0.96046114 0.060383074
000110 da 32 c6 3e c5 e4 02 bf 3c e7 e5 be 02 39 22 bf
       0.38710672 -0.51130325 -0.4490298 -0.63368237
000120 07 54 2b bf 3e 54 34 3f d6 c7 e1 be 9f 4b 43 bf
       -0.6692509 0.70441043 -0.44097775 -0.76287264
000130 ed bb 4a bf 88 76 33 3d a1 d3 16 be a6 9b 9c bf
       -0.79193 0.043814212 -0.14729168 -1.2235
000140 06 45 8a be 53 50 16 3d 27 a2 52 be ab 23 d4 be
       -0.27005786 0.036697697 -0.20569669 -0.41433463
000150 12 cb 3d be 57 bb 98 bf 24 2f 5d be 15 7e 16 3e
       -0.18534496 -1.1932172 -0.21600014 0.14696534
000160 96 97 17 3f cf 4b 89 bf 65 25 db be 38 fa 20 3e
       0.59215677 -1.072626 -0.42801967 0.15720451
000170 e0 67 bd 3e 72 1f 24 3f 79 f7 0b bf 1d 65 b1 3d
       0.36993313 0.6411048 -0.5467449 0.08661864
000180 bc 22 63 3f 25 5e cf be fe 31 02 c0 3e 19 28 bf
       0.88724875 -0.40501514 -2.0343013 -0.65663517
000190 77 cc 90 be 3d 01 eb 3e 2b 5b 83 bf c1 cb b6 3e
       -0.28280994 0.45899382 -1.0262197 0.35702327
0001a0 c3 3b 9b be ea e5 c2 bd f5 83 00 3e 51 6a a8 3e
       -0.30319032 -0.09516509 0.12550338 0.32893613
0001b0 b2 2c a3 bd 17 8e 89 3f 78 5e 8d 3e 1c 24 47 be
       -0.07967509 1.0746487 0.27611136 -0.19447368
0001c0 ef d5 0b 3f 91 6a 44 bf 2d 78 30 3e 64 84 12 bf
       0.5462331 -0.7672511 0.17233343 -0.5723326
0001d0 2e 22 0b 3c 8d 0a 33 be 7e a4 9f 3e 8d 82 27 bf
       0.008492036 -0.17484494 0.31180185 -0.6543358
0001e0 65 df 07 be 60 76 aa be 8e 7d 90 3d c6 1c 3c be
       -0.13268812 -0.33293438 0.07055198 -0.18370351
0001f0 67 0a 1b 3f aa b0 2b bf f6 7f 9a 3e e2 03 1d 3e
       0.6056275 -0.6706644 0.3017575 0.15333512
000200 19 da 1e 3d a5 35 92 be 40 8a 37 bf 4a 9f 5e 3f
       0.038782213 -0.28556553 -0.7169533 0.86961806
000210 b4 20 b6 be f7 bd b4 be 31 ae b9 3e e8 53 72 be
       -0.35571826 -0.35301182 0.3626571 -0.2366482
000220 31 b6 83 bf db e1 20 be 7f d0 5d bf 20 e7 13 bf
       -1.0289975 -0.15711157 -0.86646265 -0.57774544
000230 07 12 26 bf 19 b2 88 be 48 49 98 bf dd 32 3f bf
       -0.6487126 -0.26698378 -1.1897364 -0.74686986
000240 e6 f0 c1 3e 06 98 c8 be f5 08 c3 bf de 0f 42 bf
       0.37879103 -0.39178485 -1.5237108 -0.7580546
000250 dd 3b 46 3f 7f bc 33 be 90 46 96 3e 40 63 75 3e
       0.77435094 -0.17552374 0.2935071 0.23963642
000260 c7 c8 b0 3e 3c cd bb bf cf dc d2 3e 81 7f 87 be
       0.3452818 -1.4672008 0.4118409 -0.26464465
000270 06 75 a9 3e c8 11 5f 3e 3f e2 3d 3e 28 86 1e 3f
       0.33097094 0.21784127 0.18543337 0.61923456
000280 bb 10 c4 bf 00 be 30 be f1 fc 27 3f 0a 2c 99 be
       -1.5317606 -0.17259979 0.6562033 -0.29916412
000290 3c a8 14 3f e5 e8 b4 bf 57 ab 3a bf 62 40 44 bf
       0.58069205 -1.4133574 -0.72917694 -0.7666074
0002a0 ad 17 25 bf 31 ef 38 be 51 89 43 bf 4e 95 ed 3d
       -0.6448925 -0.18059994 -0.76381403 0.11600743
0002b0 78 b4 e3 be d2 65 57 3f 97 5e af bf bf 6c 75 be
       -0.44473624 0.8413974 -1.3700742 -0.23967265
0002c0 e3 e7 84 be f9 63 02 bf e1 88 a3 bf 3b 94 94 be
       -0.25958166 -0.50933796 -1.2776147 -0.2901934
0002d0 48 3a c5 be 5a c2 89 be 01 6c 06 bf b9 11 2d bf
       -0.38521028 -0.2690609 -0.5250855 -0.6760517
0002e0 0a 19 05 3e 26 0b 98 3d ba a5 27 bf d6 5b 8e 3e
       0.12997833 0.074240014 -0.65487254 0.2780444
0002f0 10 16 8e be ac 37 37 bd 42 f5 a8 bd fb 93 40 be
       -0.27751207 -0.044730827 -0.08249904 -0.1880645
000300 a8 8f 10 be 94 16 9a bf bc f6 2d bd c0 68 42 be
       -0.141173 -1.203814 -0.042471632 -0.18985271
000310 b2 37 70 be a0 be 0b 3f 4a 8d 84 be e2 93 a0 bf
       -0.23458746 0.54587746 -0.25889045 -1.254513
000320 b5 df 44 bf 77 55 0e 3d 01 b8 a5 3e 6b 25 f1 be
       -0.7690385 0.034749474 0.32366946 -0.4709886
000330 85 87 c7 bd b2 29 f0 3d d9 02 83 bd a0 38 af bf
       -0.09742645 0.11726703 -0.063970275 -1.3689156
000340 fd 7e d3 3e 5b ab 14 3e 3c 36 23 be 92 98 ed be
       0.41307822 0.14518492 -0.15938658 -0.46405464
000350 9d 74 87 bf a7 c7 e5 3e aa 84 19 3e 65 d0 9a bd
       -1.0582463 0.44878885 0.14992014 -0.07559279
000360 b5 b7 32 3f b7 81 ba 3e 22 e7 6e bf 2a 87 f9 3d
       0.69811565 0.3642709 -0.9332143 0.121839836
000370 ef 06 88 3e df c1 ae 3e 68 c5 89 3e db 9b 8c 3d
       0.2656779 0.34132287 0.26908422 0.068656646
000380 aa 68 bf 3e 50 c3 e2 bd e6 4e 33 3f a4 e6 fb be
       0.3738454 -0.11072409 0.70042264 -0.49199402
000390 ca a4 29 bf a5 f0 ed be 96 21 3f bf 2d 50 d7 3e
       -0.66267073 -0.4647266 -0.74660623 0.42053357
0003a0 76 9a 5f bf fa 4d e3 be c8 20 60 be e7 51 ac bf
       -0.87345064 -0.4439543 -0.21887505 -1.3462495
0003b0 85 a5 b5 3e d9 64 d8 be 64 32 32 3f 3c c5 1c 3e
       0.35477844 -0.4226444 0.6960814 0.15309614
0003c0 9b e6 72 be 32 0b 05 be 00 05 14 3f ad b6 79 3e
       -0.23720782 -0.12992552 0.5782013 0.24386092
0003d0 5d 3a 74 be f1 c5 54 be 43 b0 db be 7b 4e 51 bf
       -0.23850389 -0.20778634 -0.42907915 -0.81760377
0003e0 b6 f6 30 3f 28 ab 7c be 27 91 b8 be f9 07 d5 be
       0.6912645 -0.24674666 -0.36048242 -0.41607645
0003f0 a4 13 7a be f2 cb 14 3e 16 d6 35 3e 75 28 d0 be
       -0.24421555 0.14530924 0.17757449 -0.40655866

fc2.bias f4 [256]
000000 b5 a2 93 be 93 04 40 be 2c cb 01 bf 50 b6 42 be
       -0.28835073 -0.18751745 -0.5070064 -0.19014859
000010 2f 4f 1b 3f 4e bf 5c 3f 2d c9 8b be f4 4f 14 bf
       0.606677 0.8622941 -0.27301922 -0.579345
000020 bc 84 a2 bb 63 1d b6 be 0b 03 fa bd b4 04 52 bd
       -0.004959671 -0.35569295 -0.12207612 -0.051274016
000030 3d e0 2d bc 85 ea b1 be 82 95 1b bf 8d 19 ed bd
       -0.010612545 -0.34749237 -0.60775006 -0.11577139
000040 41 17 93 bd f1 ff 5c 3d f0 8b 5f be de fa 87 3f
       -0.0718217 0.053955022 -0.21830726 1.0623434
000050 b9 bf d0 be 0c d1 ce 3e 27 00 0e 3f 2c f0 8b 3e
       -0.40771273 0.40393865 0.5546898 0.27331674
000060 7f 36 8a bd 76 ae a6 be 57 46 ae 3d 38 3e 38 bf
       -0.067486756 -0.32554978 0.0850951 -0.7196994
000070 cf 5b 68 bf 3b b3 83 3e 79 1b 4b be d8 98 e4 3d
       -0.9076509 0.2572268 -0.19834699 0.11161965
000080 c8 ae fb 3e 2e db d4 bd 6d 36 f5 be c0 80 fa bd
       0.49156785 -0.10393368 -0.47893086 -0.12231588
000090 29 5f 51 be ee c9 b7 be f8 af f9 bd 6c 06 4d bf
       -0.20446457 -0.35896248 -0.121917665 -0.80087924
0000a0 60 cf c4 bd 1a d3 16 be a1 2b 23 bf 21 64 47 bf
       -0.09609866 -0.14728966 -0.6373845 -0.7788716
0000b0 09 47 5b be 4c a2 13 3f 92 07 02 be a7 b4 7b 3f
       -0.21413817 0.5766952 -0.126982 0.9832253
0000c0 2a b5 14 bf d2 51 34 3d 3b a4 99 be 48 95 c7 bb
       -0.58088934 0.044023342 -0.3000811 -0.0060907938
0000d0 4d f9 0e bf 0a a5 c1 3e e0 98 45 be e8 fe 27 3e
       -0.5584915 0.37821227 -0.19296598 0.16405833
0000e0 f4 f4 8f 3e 0c 74 ee be 55 d1 99 bd f1 28 af bd
       0.28116572 -0.46572912 -0.0751063 -0.08552731
0000f0 ab 9d cf be 55 11 32 bf 17 f5 16 3f 80 3b 51 3e
       -0.4054998 -0.69557697 0.5896773 0.20432854
000100 0e 70 6f bd 27 4e d3 be 9a 23 4d be e3 59 bc 3e
       -0.058456473 -0.41270563 -0.20033112 0.36787328
000110 01 a1 76 3e 64 36 f7 3e 9a 06 8c 3e 3f 9f a4 3e
       0.24084856 0.48283684 0.27348787 0.32152745
000120 5a ce 78 be 1c 9f fa bc f1 38 c9 bd c0 27 ea be
       -0.24297467 -0.030593447 -0.09825314 -0.45733452
000130 e6 e9 58 be 05 09 08 bf 4a 64 d9 3e 84 be 90 bd
       -0.21182975 -0.5313876 0.42459327 -0.07067588
000140 71 79 fc be fd 36 c7 3d 08 75 51 be 8c 67 53 3f
       -0.49311402 0.09727285 -0.204548 0.82579875
000150 35 7c 0c bf 2e 33 63 be d7 01 a5 bd 13 00 0c bf
       -0.54877025 -0.22187492 -0.080569915 -0.54687613
000160 f5 78 02 bf 23 85 81 be cb ae 80 3e bd a4 08 bd
       -0.50965816 -0.25296888 0.25133356 -0.03336023
000170 c2 28 af 3e 8b fd 83 be 93 eb 3b be c0 50 aa 3e
       0.34210783 -0.25779375 -0.18351583 0.33264732
000180 76 ba a3 be 88 7e 18 3e b3 44 ab 3e 68 e6 a5 3d
       -0.31978196 0.14892018 0.3345085 0.08100587
000190 b8 bc e3 be d8 4e 15 bf fc 11 86 3e 72 54 b2 3e
       -0.44479918 -0.5832343 0.26185596 0.34830052
0001a0 31 67 0a 3e 60 a2 43 bf 26 af 64 be 66 07 35 3d
       0.13515927 -0.7641964 -0.22332439 0.04419651
0001b0 24 ed df bd e4 22 6d bd 49 9e 60 3f 6c c9 3c 3f
       -0.10933903 -0.057894602 0.87741524 0.73744845
0001c0 cb a4 ca be 49 ee bd be e7 ed 06 bf 2a 42 83 bf
       -0.39578852 -0.3709586 -0.5270676 -1.0254567
0001d0 ec d2 87 3e 09 ea 3f 3d 0b a5 0e 3f 55 92 96 be
       0.26528108 0.046854053 0.55720586 -0.29408517
0001e0 ff 09 7c 3e 45 e2 5b bc 0e 59 7e 3d cb 4c 8b 3f
       0.24613188 -0.013420646 0.062096648 1.088281
0001f0 c5 29 22 bd 7b 1f 30 bd f1 8e 13 3e 37 94 8d bd
       -0.039590616 -0.042998772 0.14409997 -0.06913035
000200 5e a5 c2 be da 2e 81 3d 7d 06 b0 3c ee f0 6b be
       -0.3801679 0.06307764 0.021487469 -0.23041126
000210 f6 78 96 be d5 63 3e bd fc f4 3d bf 5e 81 a4 bf
       -0.2938916 -0.046481926 -0.7420194 -1.285198
000220 0a b7 9c be cb f0 ca bc 89 c4 ce be fa 5a 82 be
       -0.30608398 -0.024773022 -0.4038432 -0.25460035
000230 ef e0 75 3d a4 e1 18 bd ca 18 59 3e 42 58 8d 3e
       0.060028967 -0.037324563 0.21200863 0.27606398
000240 82 20 b3 be e7 91 4c be 0c de b1 be d3 fc 8f be
       -0.3498574 -0.19977532 -0.3473972 -0.28122577
000250 ac 23 7d 3e 54 13 a6 3e 85 09 76 be 8e 5c 9d 3e
       0.24720639 0.3243662 -0.24027069 0.30734676
000260 b1 42 8a 3f ce f9 31 3f 1f 3a b1 3e a9 d3 2f 3e
       1.0801603 0.69521797 0.34614655 0.17170586
000270 33 a2 01 3e d8 38 9a 3e 44 5d c4 bd 75 70 4d 3f
       0.1265953 0.30121493 -0.095881015 0.8024972
000280 8b 47 47 3e 19 a0 ed be 49 b6 c5 3e 58 07 5e 3e
       0.19460885 -0.46411207 0.38615635 0.21682489
000290 60 f8 12 bf cc 52 26 bf 13 6b 4d bf d7 7d 81 bd
       -0.5741024 -0.6497009 -0.8024151 -0.0632283
0002a0 b3 6f 4c 3e 26 e8 09 bc a1 d2 44 be f3 47 c2 be
       0.19964485 -0.008417165 -0.19220974 -0.37945518
0002b0 b1 4a 1e 3f 2e 2c c4 be 3e aa 10 bf fb 91 82 be
       0.6183272 -0.38314956 -0.5650977 -0.25502
0002c0 c4 5e af 3e 1b db 9f be 97 93 54 3f 97 90 0f 3f
       0.34251988 -0.31221852 0.83037704 0.5608
0002d0 d7 7e 2d 3f ba a9 e4 3e e7 d0 69 be d2 cb eb 3e
       0.6777167 0.4466074 -0.22833596 0.4605394
0002e0 53 d2 52 3f 6d 67 e2 3e e2 73 ef 3e 71 e5 d9 ba
       0.8235218 0.44219533 0.467681 -0.0016624165
0002f0 61 31 b4 3e 09 d9 17 3f c1 dc ac bc ec ba 81 3f
       0.35193923 0.59315544 -0.021101357 1.0135169
000300 7a 0a 15 bf d6 46 1e bf a6 79 47 3f 7e 9d 49 3f
       -0.5821911 -0.6182684 0.77919996 0.7875594
000310 21 a0 9d bc 62 f2 09 bf ad 97 47 3f 28 ee 71 bf
       -0.019241394 -0.5388547 0.77965814 -0.9450402
000320 04 fb cb be 70 a0 5e bf 9a 6f 66 bf 94 87 90 be
       -0.39839947 -0.8696356 -0.9001404 -0.28228438
000330 59 eb d5 bd d8 dc a3 3e f2 83 99 3f fe 84 58 3f
       -0.1044528 0.32004428 1.1993392 0.8457793
000340 89 4c 62 be 5f 41 09 3f 1d ca f7 3d 60 e1 94 bf
       -0.22099508 0.53615373 0.12099097 -1.1631279
000350 72 98 6d bd a5 bb 1a bd f5 7c 0d bf bb 2d db 3e
       -0.05800671 -0.037776608 -0.55268794 0.42808327
000360 c5 f7 0c 3f 6a e8 1d 3f 56 0d 15 3e c0 8f 1c bf
       0.55065566 0.6168276 0.14555869 -0.61156845
000370 97 b9 e3 be 0c d2 08 3f 4b 2a 89 3c 25 05 57 3e
       -0.4447753 0.53445506 0.0167438 0.20998056
000380 5f ed 52 3f 64 eb c5 3e dc 22 39 be 4c c5 80 bd
       0.8239345 0.3865615 -0.18079704 -0.062876314
000390 8c 37 ec 3d d3 6d 5d 3e 6d 81 d4 be 38 0e 40 3e
       0.11534032 0.21623926 -0.41504994 0.18755424
0003a0 cc 86 08 3f 5a de 29 3d 12 d3 68 bd 89 6f 4f 3f
       0.53330684 0.041471817 -0.056841917 0.81029564
0003b0 54 b9 21 3f e6 0b a2 bc 3d 1b 21 bc eb 97 84 3f
       0.63173413 -0.019781064 -0.009833154 1.0358862
0003c0 cb 82 ff 3d b8 3f a2 3d 66 3b 41 be 56 bc 89 3f
       0.12476119 0.0792231 -0.18870315 1.07606
0003d0 13 e6 34 3e 24 82 27 3f ee 5a e9 be 50 49 08 be
       0.17665891 0.65432954 -0.45577186 -0.13309216
0003e0 31 22 18 3f 52 48 a2 bd 88 48 0e bd cd df c1 be
       0.5942717 -0.0792395 -0.03473714 -0.3786606
0003f0 4c 84 82 bd 2f 2b 1d bf e9 03 9a 3d ad b4 a1 3e
       -0.0637289 -0.6139402 0.07520277 0.31583157

mu_output.weight f4 [7, 256]
000000 f6 d7 e6 be d6 33 c4 be da e2 3e 3e f8 3e 19 bd
       -0.4508664 -0.38320798 0.18641225 -0.037413567
000010 c2 86 80 3d a6 35 07 bd ef 18 0a 3d 97 26 07 bd
       0.06275703 -0.033010148 0.033715185 -0.032995787
000020 4d 5e d5 bd a8 34 49 bd 2e 75 68 bc f3 25 0d bd
       -0.10418377 -0.049122483 -0.014188094 -0.03446002
000030 6d 34 2b 3e 3e 0a 50 be 07 37 a7 be b7 be b6 be
       0.16719218 -0.20316407 -0.3265917 -0.3569238
000040 b0 04 0c 3e d8 a8 b0 be 9c 81 7d be d5 72 d2 3e
       0.13673663 -0.34503818 -0.24756473 0.41103235
000050 38 17 1a be 29 7d 14 3e 9d a5 38 be 60 1b d6 bd
       -0.1504792 0.1450087 -0.18031926 -0.1045444
000060 23 6e 2c bd 46 d2 91 bc bf f5 0f 3d f0 f4 fc 3d
       -0.042097222 -0.017800462 0.03514647 0.123514056
000070 f0 d5 d0 3d 05 9b 62 be a9 ef 82 3e 41 72 9d 3d
       0.10197055 -0.22129448 0.2557347 0.07687808
000080 87 0b 2c bd ed 3b 2a be 40 3c f8 bb c5 33 cc be
       -0.04200318 -0.16624422 -0.0075755417 -0.39883247
000090 e9 56 30 be 65 03 04 be 10 d9 00 3e 63 b2 01 be
       -0.17220654 -0.1289192 0.12582803 -0.12665705
0000a0 a7 89 31 3c 9e 52 0a 3e d8 69 0c be dd 71 ff 3c
       0.0108360415 0.13508078 -0.13712251 0.031182224
0000b0 20 6c cc 3e dd b5 eb bd 53 33 cb 3e ad f2 3e 3e
       0.39926243 -0.11509297 0.39687595 0.18647261
0000c0 c9 ba 81 bd ea d3 7f bc 39 11 27 3e af 4c 57 be
       -0.063344546 -0.015614489 0.16315164 -0.21025346
0000d0 68 1f 27 be 1b b8 6c 3d ba df 1e 3e 5f 67 2b be
       -0.16320574 0.057792764 0.15515032 -0.16738652
0000e0 65 1f 6c 3e 65 b8 1b be 42 06 02 3d cb 60 28 bf
       0.23058851 -0.1520706 0.03174425 -0.65772694
0000f0 1f 3b fd bd 6e e2 74 be 24 89 75 3e 4f 7d 96 bd
       -0.12364792 -0.23914501 0.23978096 -0.073481195
000100 c4 30 96 be f7 21 28 be d1 1f 1d 3e cd 35 76 3e
       -0.2933408 -0.16419207 0.15344168 0.24043961
000110 52 43 1a be 3b 4c 86 be a5 30 2d be a9 29 12 be
       -0.15064743 -0.26230034 -0.16913088 -0.14273705
000120 2a 3d 91 be 3e cf 20 bd 87 12 cc 3e b8 95 e3 3b
       -0.28366977 -0.03926014 0.39857885 0.006945338
000130 b4 5d e2 3e 07 2d 00 3e 89 2c a7 3e 43 18 b2 bc
       0.44212115 0.12517177 0.32651165 -0.021740085
000140 76 0b 84 be cc f4 77 be 57 f8 09 be 79 54 1b be
       -0.25789994 -0.24214476 -0.1347364 -0.15168943
000150 1f 97 9c 3e 95 2e 4b bc 98 f6 1d be 77 52 be 3e
       0.30584046 -0.012401243 -0.154261 0.3717229
000160 45 09 34 be 0f 31 cf 3d 31 3a ac 3e a6 8d c4 3b
       -0.17581661 0.10116779 0.33638147 0.005998331
000170 5f 50 46 be e1 04 36 3c 44 72 8a 3d 2b 55 30 be
       -0.19366597 0.011109562 0.06760076 -0.17219989
000180 d9 3c 20 3e 92 14 aa bc 81 db 22 bd ea 8d e3 3d
       0.15648212 -0.020761762 -0.039760116 0.11111052
000190 77 96 9e ba 3c bf d7 bd af 9d 3e 3e b4 de af 3e
       -0.0012099285 -0.10534522 0.18614839 0.34349597
0001a0 88 9a 18 3f 26 d6 4e bd e4 83 e3 3d 02 a5 6e 3d
       0.59610796 -0.050497197 0.111091405 0.058262832
0001b0 7a c3 47 3c cf 5a 93 3b 50 b1 03 bd 50 ea 3a bd
       0.012192601 0.004496909 -0.03215152 -0.045633614
0001c0 a1 89 55 3e ff 62 63 3e a8 50 f7 be 47 43 fd bd
       0.20853283 0.22205733 -0.48303723 -0.12366348
0001d0 42 e1 b7 be c5 56 62 3e 49 fd 05 3e b4 f6 ee bd
       -0.35914046 0.22103412 0.13084902 -0.11668149
0001e0 af 6d 22 bd 94 9a 08 be 75 eb 7c bd 87 62 bc 3e
       -0.039655384 -0.13340217 -0.061747987 0.3679392
0001f0 fb df 59 bd 38 10 14 3d fc fa 84 3d b5 0e 74 3d
       -0.05319212 0.03614828 0.06493184 0.05958434
000200 9c 8f 4d be a5 65 97 3a 17 ec 4f be fe d8 9f 3e
       -0.20074314 0.0011550678 -0.20304905 0.3122024
000210 fc b3 36 be 92 78 33 be 49 7e c3 3d 65 02 98 3d
       -0.17842096 -0.17526463 0.09545571 0.07422332
000220 13 e3 91 3d c9 db 94 bd 46 78 17 bc 14 7a 1e be
       0.07123389 -0.07268483 -0.009244984 -0.15476257
000230 9a 3d 2a be 15 31 8b be 39 bd 91 be 82 df 02 bd
       -0.16625062 -0.27185884 -0.28464678 -0.031951435
000240 80 64 22 3e 4a 54 62 3e 9e 2c cc be e7 9a 39 3e
       0.1585865 0.22102466 -0.3987779 0.18125497
000250 ef eb 08 3e 04 52 c1 3e 94 a2 59 be c8 e9 48 3d
       0.13371252 0.37757885 -0.21253425 0.049051076
000260 86 fa 45 3d 51 9f f9 bc 4e c3 d1 bc 57 ba 88 be
       0.04833462 -0.030471476 -0.025605824 -0.26704666
000270 82 1c b9 3c a1 84 c5 3d 36 6a fd 3e f8 ac 63 3e
       0.022596601 0.096444376 0.49495095 0.22233951
000280 71 cd 26 bd 5b 2f 3a 3c e6 bc 7e be be b9 9b be
       -0.040723268 0.0113638295 -0.24876747 -0.30415148
000290 77 0d dd 3d ec 0f f8 bb c8 e7 28 be dd b9 11 3f
       0.10793584 -0.0075702574 -0.16494668 0.5692423
0002a0 5e 86 0a be 5e 75 94 3e 61 6f 05 bd 14 47 f6 3d
       -0.1352782 0.28995794 -0.032576922 0.12025276
0002b0 90 42 88 3e c4 dc 55 3e c4 3c dc 3b 39 5d d5 bd
       0.26613283 0.20884997 0.006721111 -0.104181714
0002c0 e7 bf f4 3c 21 8c 5b 3e 06 e4 88 bd 49 8d 3b bd
       0.029876662 0.21440174 -0.06684117 -0.045789037
0002d0 b4 00 cc 3d cc 9a f1 bd d4 b1 bc bd b6 11 0f 3e
       0.099610716 -0.11797103 -0.092136055 0.139716
0002e0 97 75 54 bd ef d7 98 3b c5 cf a6 be d7 e0 13 3d
       -0.051869955 0.004664413 -0.3258039 0.036103096
0002f0 14 2c 2e 3e 5f b4 e5 bd d0 1f 87 bc d4 04 88 3e
       0.17009002 -0.11216044 -0.016494662 0.26566184
000300 f8 68 39 bd ef 5b 84 bd 3b 0f 19 3f e6 d7 0b 3f
       -0.04526612 -0.064628474 0.59788865 0.5462631
000310 d1 aa c2 39 48 e0 c3 3d f3 72 25 be 7c 08 1a 3e
       0.00037129832 0.09564263 -0.16157131 0.15042299
000320 91 f3 07 be 92 1d 6f bd d1 0b ae 3d 1c 19 19 bd
       -0.13276507 -0.05837781 0.084983476 -0.03737746
000330 89 e8 88 bd 6c 55 f6 bd 3e 61 17 3f 5e 08 79 3d
       -0.066849776 -0.12028012 0.59132755 0.060798995
000340 f9 d0 60 3e b5 27 14 3f ee 09 ea bb d7 a6 05 bd
       0.21954717 0.5787309 -0.007142297 -0.032629814
000350 8c 03 00 3d 5b fa a8 3d e8 cf 50 3e c4 7e 08 3f
       0.031253383 0.082508765 0.2039181 0.5331843
000360 62 05 3e 3c 10 78 8f be b5 db b5 3e ba 85 b8 bc
       0.011597963 -0.28021288 0.35519186 -0.022524703
000370 97 24 b8 bd 75 77 88 3e d5 84 e5 be 53 25 6f be
       -0.08991354 0.26653638 -0.44827905 -0.23354082
000380 de 6e 2f 3d 79 64 eb 3b 5b ec 08 3f 0c 16 3e be
       0.04283034 0.007183608 0.5348565 -0.18563098
000390 a2 48 6f 3d c1 c3 05 bf b9 7e cc be ef e8 c1 be
       0.058418877 -0.5225182 -0.39940432 -0.37873027
0003a0 de bf aa 3e e1 18 a8 3b 04 07 af bc 0b 63 a1 bd
       0.33349508 0.005129919 -0.02136565 -0.07880219
0003b0 ae 43 dd 3c 3a 7e e3 bc 2b 65 10 be 1b 78 d8 3e
       0.027009811 -0.02777015 -0.14101093 0.42279133
0003c0 33 05 43 3e 2e 79 77 3e fe 06 9b bd 81 38 0b 3b
       0.19044952 0.2416732 -0.07569693 0.0021243396
0003d0 43 0a cb be 62 5b 17 3e 24 92 15 3e 44 93 90 3e
       -0.39656267 0.14780954 0.1460653 0.28237355
0003e0 2b d7 2d be 1a 08 50 3e 80 ca 2b be 12 02 ee bd
       -0.16976611 0.2031559 -0.16776466 -0.11621489
0003f0 ae 1a 29 bd 1e 1a e3 3b c7 7d a3 be 1b fa d7 3e
       -0.04128521 0.0069306036 -0.31931898 0.42183003

mu_output.bias f4 [7]
000000 51 b5 d4 be 33 27 eb be 5d ad ce bf 7d 4f 9b be
       -0.41544583 -0.45928344 -1.6146656 -0.30334082
000010 7e 7c bc bd 88 a7 c6 3d 0c 41 4f 3f
       -0.092034325 0.09699923 0.8095863

log_std_output.weight f4 [7, 256]
000000 ce 60 55 3d 4c e5 30 bc 01 d2 89 3b b9 21 8e bc
       0.052094273 -0.010796856 0.0042059426 -0.017350065
000010 0b 40 ed 3b 3b 77 af 3c b0 8a 11 bc d3 c2 f2 3a
       0.0072403005 0.021419158 -0.008883163 0.0018521197
000020 a3 2e 6f 3c e1 9f c7 3b 32 43 9d 3c 0c 56 75 3c
       0.014598521 0.006092057 0.01919708 0.014974128
000030 2e 76 e8 bc e7 c1 0b 3d cd f2 16 3d 05 71 b9 3c
       -0.028376665 0.034120467 0.036852647 0.0226369
000040 1c 09 2f bc 53 f5 3b 3d c0 fc 18 3c 3c cc a3 3d
       -0.010683324 0.045888256 0.009337604 0.07997939
000050 d7 3b 1d bb 0e 73 d3 bc c1 92 f6 bb 94 4a d3 bc
       -0.0023991966 -0.025811698 -0.0075248186 -0.025792398
000060 4c 57 d4 bc 97 6f 1d bd 44 cc 11 bd 04 79 af bc
       -0.025920533 -0.0384365 -0.035595194 -0.02142001
000070 7c f0 8e bc 69 6b 8b 3c 4e f3 b2 bb 40 5a 13 bd
       -0.017448656 0.01701899 -0.005461133 -0.03597474
000080 81 d8 a6 3c dc d9 2d 3d 98 ab 36 bd 05 50 be 3d
       0.020366909 0.042444095 -0.04459724 0.09292606
000090 7f 4a c8 3b 82 d8 9e 3c 21 e8 8c bb 51 48 f8 3c
       0.0061123963 0.019390348 -0.004300133 0.03030792
0000a0 56 8b 49 3d 9e 74 10 bc 15 83 bb 3c e1 b8 e4 bb
       0.049205147 -0.008816866 0.022889653 -0.006980047
0000b0 a5 7c ae bc cf 2b 2b 3c c2 4b de 3c c3 ac 93 ba
       -0.02129967 0.0104474565 0.027135734 -0.0011266697
0000c0 0e 17 65 bb 5e 5d a6 3c a0 62 ff bc 26 20 56 3c
       -0.0034956369 0.020308193 -0.031174958 0.013069188
0000d0 44 f4 22 3d c5 1c 62 3b 7b 86 54 3c de 76 1f 3d
       0.03978373 0.0034502011 0.012971516 0.03893172
0000e0 47 b9 39 bd d9 bf 16 3c 45 aa 3d 38 a2 4b f6 3d
       -0.04534271 0.0092010135 4.5219687e-05 0.120261446
0000f0 a8 36 0f 3c bd 51 55 3d c0 9e a8 bb 07 34 d2 3b
       0.008741058 0.052079905 -0.0051458776 0.0064148935
000100 49 da 53 3d 03 12 f6 3c bf 3b b6 3c f6 51 e0 bc
       0.051721845 0.030037886 0.022245286 -0.027382832
000110 13 bf ba 3c 33 af 22 b9 e8 4b 98 bb 81 ce 60 3c
       0.02279619 -0.0001551479 -0.0046477206 0.013721109
000120 04 45 73 3d 84 6b 18 bc a5 e0 dc 3b 25 5e ed bb
       0.05939199 -0.0093029775 0.006740647 -0.007243889
000130 7d 4c d8 3c 7d f5 0c bd f2 27 a6 bd 0b e0 29 bd
       0.02640366 -0.034413803 -0.08113088 -0.04147343
000140 3a f1 96 3c 63 8a dd 3b 44 ea 22 3c 67 f1 ca bc
       0.018425573 0.0067608817 0.009943549 -0.024773313
000150 f7 50 3d bc e8 3b 80 3c 6d f3 cd 3c 61 66 b4 bc
       -0.011554948 0.015653566 0.025140489 -0.022021474
000160 91 ad 3c 3d dc 49 08 3c 26 d6 93 3c de f4 4c 3d
       0.046063963 0.008318391 0.01804645 0.05003821
000170 48 02 a2 3d 25 b0 02 bc 0e 6e f5 3c 1d f0 a2 3c
       0.07910591 -0.007976566 0.029959705 0.019889886
000180 cd 79 45 bc b1 2d 5e 3d fb e4 03 bb 12 e6 42 bc
       -0.012052965 0.054242793 -0.0020125497 -0.011895673
000190 cf b7 fd 3b 1a ae 81 3a 2f 66 a6 3c 58 ab a9 3c
       0.007742859 0.0009893805 0.020312397 0.020711586
0001a0 25 1a 53 bd e7 e3 c5 3b a3 01 2d bc 3a ad fd bb
       -0.051538605 0.006039131 -0.010559472 -0.0077415975
0001b0 ca f6 64 bc 0c fe 20 3c 49 df fa bc 18 94 d9 bc
       -0.013974855 0.0098261945 -0.030624049 -0.026559874
0001c0 2c b5 54 bb 78 c6 4d bd 21 76 55 3d 67 1f 18 3c
       -0.003245662 -0.050238103 0.05211461 0.009284831
0001d0 09 cd 59 3c cd b5 6d bc 3d 2c 98 3c da d5 01 3d
       0.013293513 -0.014508677 0.018575782 0.031698085
0001e0 87 cb 01 bd 2f 14 01 3c ab 3b 9e 3c 8a 6d ae 3b
       -0.03168824 0.007878347 0.019315561 0.0053231167
0001f0 47 cb 5f bc ed f9 89 3b 18 4b 68 bb e8 3b 0f 3c
       -0.013659305 0.0042107017 -0.003544515 0.00874231
000200 a7 6f 8b 3c 47 11 48 bc ae 5e 98 3c 3e c0 1a 3b
       0.017021013 -0.0122111505 0.018599834 0.002361312
000210 b0 8a 83 3d b5 62 6c 39 a2 e0 0a bd 3f d8 b4 3c
       0.06422937 0.00022543485 -0.033905633 0.02207577
000220 11 02 bb 3b 63 da 12 3c b7 86 7d bd df c7 0b 3c
       0.0057070334 0.0089632 -0.061896052 0.00853154
000230 67 c4 58 3c 04 b7 02 3d a6 5b 3d 3d 5f 19 9b 3c
       0.01323042 0.03191282 0.04622998 0.018932996
000240 32 5b b3 bb 91 80 30 bc 45 ad fa bb 37 4b 10 bd
       -0.005473518 -0.01077284 -0.00765005 -0.03522798
000250 4c a0 44 bc 4a ee 89 3c c4 a6 a0 bb 75 38 bc 3b
       -0.012001108 0.016837258 -0.0049026925 0.005744035
000260 fc fd b1 bb b6 fe dd 3c d9 15 aa bc 73 ea b9 3a
       -0.0054318886 0.027098995 -0.02076237 0.0014184251
000270 e2 c0 ac bc a3 3e ab 3c 96 bc 98 bc d1 45 a1 3c
       -0.021088067 0.020903891 -0.018644612 0.019686611
000280 78 91 8e bb af 51 c2 3c e2 a7 36 3c 70 08 37 3d
       -0.0043508373 0.02372059 0.011148425 0.04468578
000290 1b 2f 5f 3c d6 48 78 3c 46 ab 82 3b d5 b5 fb 38
       0.013622071 0.015154084 0.0039877025 0.000120024815
0002a0 f4 57 f2 bc 53 9c 20 3b 00 8d b4 3c 40 be da bc
       -0.029582955 0.002450724 0.02203989 -0.026702046
0002b0 14 1c bc 3c 5a 5a 42 3c f0 51 35 3d 95 8e 19 bd
       0.022962607 0.011862362 0.044267595 -0.037489492
0002c0 f3 0e 61 3c f4 83 bd 3a e4 4b 55 bc b2 69 b0 ba
       0.013736474 0.0014458881 -0.013018582 -0.0013459234
0002d0 d7 14 2d bd 76 a4 fc bc 9f 78 31 3c 0b a1 bb 3c
       -0.042256203 -0.03084014 0.010831981 0.02290394
0002e0 87 d7 ae 3c 13 65 b9 bb f0 d0 3b 3c 79 fd 9a 3b
       0.021343006 -0.005657801 0.011463389 0.0047299233
0002f0 7f 67 e2 b9 64 fb c5 3c 3d 0e 0b 3c 77 23 27 bc
       -0.0004318319 0.024167724 0.008487281 -0.010201327
000300 72 ad c5 bc cc 4b 29 3c fe da 7f 3d 8d ce 02 bd
       -0.024130557 0.010333013 0.062464707 -0.031935263
000310 2a b2 34 3c 70 d5 b0 3a 92 59 ab 3c a7 4c 3b 3c
       0.011028806 0.0013491344 0.020916734 0.01143185
000320 d2 5c ba 3c e3 ed 1e 3c 09 63 37 3b c8 57 c4 3b
       0.022749338 0.009700271 0.0027982614 0.0059919097
000330 c8 3b ae bc ae 85 b0 3c e7 81 12 3d 16 b9 98 bb
       -0.02126874 0.021548118 0.035768416 -0.004660736
000340 70 da 6b bc a9 93 5b 3d 3e 8e e0 3a d8 81 91 3c
       -0.014395341 0.053607617 0.0017132235 0.01776211
000350 f2 bd fb bc a7 0e 55 3c 54 0c c7 ba 70 8f d7 bd
       -0.030730221 0.013003982 -0.0015186169 -0.105254054
000360 84 2b fa ba ad 6d 3c 3d 06 76 a4 bc fe 02 8a 3b
       -0.0019086455 0.046003032 -0.02007581 0.0042117825
000370 2c 89 c4 3c 67 ed 06 bc 0e 2a ca 3c 89 fc d3 3c
       0.02399119 -0.008235312 0.024678256 0.025877254
000380 6b 6b 70 bc 54 e0 cd 3c 2d 0e 87 bc 4c c6 0e 3b
       -0.014674048 0.025131382 -0.016486252 0.0021785675
000390 f4 1a ec 3c 00 e7 ac 3d 8b 5a ab 3c 6f 79 9a 3c
       0.028821446 0.08442497 0.020917198 0.018856732
0003a0 a8 c0 e0 3c 3d d9 fb 3c 85 d3 b3 bc e9 ad 88 3c
       0.027435616 0.030743236 -0.021951446 0.01668449
0003b0 96 56 31 bc 6e 4c e5 3a fb 93 65 3d 2f bf 85 3d
       -0.010823866 0.0017494091 0.05604933 0.06530606
0003c0 68 7c 73 3c 36 08 d3 3a 1b 2a b0 3b 25 44 40 3c
       0.014861204 0.001610047 0.005376113 0.011734997
0003d0 cd 9f 83 bb 3a 44 38 bd a8 29 53 3c 3e 0a 36 bc
       -0.0040168525 -0.04498694 0.01288835 -0.01111084
0003e0 dc d4 0e 3a 78 aa 86 3b 75 6a 97 3c 3f 4d 88 3c
       0.00054485886 0.004109677 0.01848338 0.016638396
0003f0 f3 03 fd ba f4 e8 44 3c 25 79 92 3c 54 6e 82 bc
       -0.0019303545 0.012018431 0.017880032 -0.01592175

log_std_output.bias f4 [7]
000000 9d 5a 72 bf 3c 5b 6f bf ee 10 63 bf 48 56 db bf
       -0.94669515 -0.9349859 -0.8869771 -1.7135706
000010 e9 33 b2 bf ac 51 bb bf 92 5d 8b bf
       -1.3922092 -1.4634299 -1.088793
