checkpoints/model_state_dict_sac_Panda_Lift_2.pth (torch, 329272 bytes, 8 tensors)

fc1.weight f4 [256, 46]
0.155685 0.3111053 -0.086248554 0.20527595 0.14690381 0.030036746 0.07927727 0.03655804
0.4286275 -0.10375537 0.01672177 -0.04627387 0.041156314 -0.13567428 -0.11113747 0.12074988
0.07916901 -0.13148613 -0.0889089 -0.353438 -0.02265537 -0.16689578 0.12979619 0.039860856
-0.089600615 0.043555427 -0.010120093 -0.017792447 -0.04117386 -0.026586326 0.039614428 -0.148132
-0.36043945 0.093434505 -0.035343055 -0.04747963 -0.19849063 -0.018792022 0.096333206 -0.1360295
-0.10591438 -0.010851669 -0.12139188 0.026518602 -0.028443247 -0.09034674 0.18275788 0.16786268
-0.027314426 0.22286448 -0.22746398 -0.004866624 0.13088343 0.055064764 0.053315442 -0.11259024
-0.12082104 0.06723608 -0.07403163 0.025612677 0.11293149 0.13171299 -0.099574186 -0.11939231
0.10206822 -0.1404567 0.09115738 0.10423013 0.007355564 0.2485868 0.0706035 0.01175006
-0.10081743 -0.0344758 -0.0057346956 0.09288626 0.044233672 0.04671437 -0.19044213 -0.005985675
-0.105022386 -0.28287685 -0.13820136 -0.07427764 0.1521637 0.116906054 0.0032784056 -0.058332782
-0.014625552 -0.13619573 -0.018312676 0.038915224 -0.041937098 0.0042888084 -0.066367194 0.19442298
-0.04383043 -0.18171358 0.020142768 0.05037006 -0.17820887 -0.17338307 -0.069008484 -0.043806273
0.07687157 -0.05316397 -0.12419703 0.038422953 -0.064346455 0.17022084 -0.10979885 0.14514613
0.016065305 -0.095154576 0.09195592 0.13797528 -0.06936764 -0.03019556 0.17623428 -0.03975229
-0.03768501 0.0054604285 0.036979668 0.024765989 -0.020189634 -0.14460993 0.042917404 0.16172045
0.15054873 0.1321888 0.15772538 -0.06487367 0.13475144 0.18226953 -0.025944477 -0.041725412
-0.015028515 0.010788419 -0.21716043 0.06425281 -0.008846217 -0.036587857 0.0019224095 -0.084533714
0.044774596 -0.17405985 -0.03372721 0.076249756 0.064893186 0.050813142 -0.15211508 -0.13174309
0.025667798 -0.087212116 0.105372936 0.0074910573 -0.00015256442 0.012796203 -0.036823437 -0.048234675
-0.1038965 0.07725585 0.043961428 -0.12285652 0.0054043056 -0.13174684 -0.10302592 0.20313142
-0.013506879 0.11192411 -0.06806116 -0.053988002 0.0871685 -0.013070464 0.14210938 0.07539346
0.110659614 -0.00857918 0.17159688 0.022107707 0.051683724 -0.0085640345 0.16764474 -0.081897736
0.050909016 -0.24122566 0.09310906 -0.044870164 -0.17165187 -0.091640234 0.100164935 -0.1916973
-0.1587142 0.11565053 -0.08143102 -0.23862433 -0.10775242 0.07726518 0.0039465814 0.19543001
-0.099075995 -0.28614178 -0.024630712 0.11015167 -0.047163893 0.22413181 -0.0666117 0.0046562003
-0.044624187 0.16807878 0.08641165 -0.13159472 -0.044372797 0.044739436 -0.062287267 0.2265608
0.07738025 0.08412905 0.110843495 -0.254278 -0.06440487 -0.12620659 -0.24068265 -0.1545158
-0.08904498 0.11654124 -0.0020349778 -0.14786732 0.034615267 0.08509553 -0.027645847 0.17440984
0.031942744 -0.06019977 0.10040845 -0.08294119 -0.07787045 -0.027910616 0.06936992 0.028312888
-0.05043575 0.08648656 0.058991626 -0.24646191 0.049812548 -0.05452359 -0.017574005 -0.0151932305
-0.10434325 -0.120639116 -0.12638578 0.09322041 -0.014136602 0.06913417 -0.019671476 -0.05684502
00000000: e36b 1f3e 3249 9f3e 15a3 b0bd dc33 523e
00000010: f46d 163e 9f0f f63c 1f5c a23d e2bd 153d
00000020: 1075 db3e b27d d4bd 18fc 883c ab89 3dbd
00000030: 8693 283d 33ee 0abe 0b9c e3bd b74b f73d
00000040: 5d23 a23d 4da4 06be df15 b6bd d3f5 b4be
00000050: c197 b9bc bae6 2abe 4be9 043e 2345 233d
00000060: 8780 b7bd 2d67 323d bfce 25bc 77c1 91bc
00000070: eca5 28bd 91cb d9bc bd42 223d eaaf 17be
00000080: 858b b8be 975a bf3d e1c3 10bd 007a 42bd
00000090: 2141 4bbe baf1 99bc 584a c53d 514b 0bbe
000000a0: a3e9 d8bd 33cb 31bc 4e9c f8bd 8a3d d93c
000000b0: d001 e9bc b607 b9bd e224 3b3e 32e4 2b3e
000000c0: 81c2 dfbc 9636 643e 51ec 68be 3378 9fbb
000000d0: 4e06 063e 978b 613d 4b61 5a3d b695 e6bd
000000e0: 0571 f7bd 12b3 893d e59d 97bd add1 d13c
000000f0: a048 e73d c5df 063e 8ded cbbd f583 f4bd
00000100: 2509 d13d e2d3 0fbe b8b0 ba3d 9b76 d53d
00000110: f106 f13b 8a8d 7e3e 9198 903d 5383 403c
00000120: 5e79 cebd 7f36 0dbd 1dea bbbb 273b be3d
00000130: 5e2e 353d 9157 3f3d 4303 43be 7b23 c4bb
00000140: fa15 d7bd 3cd5 90be a884 0dbe e01e 98bd
00000150: cdd0 1b3e 716c ef3d 85da 563b 5bee 6ebd
00000160: 03a0 6fbc e576 0bbe 7704 96bc 9265 1f3d
00000170: 3cc6 2bbd 2289 8c3b 86eb 87bd d116 473e
00000180: 8987 33bd 2013 3abe 7202 a53c d650 4e3d
00000190: 637c 36be 558b 31be 5254 8dbd 356e 33bd
000001a0: d76e 9d3d 77c2 59bd 035b febd 6361 1d3d
000001b0: 13c8 83bd 5f4e 2e3e 38de e0bd 30a1 143e
000001c0: 639b 833c 67e0 c2bd 6353 bc3d 6449 0d3e
000001d0: 9f10 8ebd ae5c f7bc c276 343e 4cd3 22bd
000001e0: 995b 1abd 65ed b23b fe77 173d 0be2 ca3c
000001f0: bb64 a5bc a014 14be 29ca 2f3d 0c9a 253e
00000200: 7229 1a3e 805c 073e c382 213e 7ddc 84bd
00000210: 48fc 093e dda4 3a3e 8389 d4bc 44e8 2abd
00000220: 293a 76bc e9c1 303c 4e5f 5ebe fa96 833d
00000230: b9ef 10bc 26dd 15bd 5cf9 fb3a 0320 adbd
00000240: 9165 373d bf3c 32be 8b25 0abd d528 9c3d
00000250: b8e6 843d 7121 503d 0ec4 1bbe a9e7 06be
00000260: 4645 d23c 449c b2bd c4cd d73d 8b77 f53b
00000270: b3f9 1fb9 2aa7 513c 2cd4 16bd b991 45bd
00000280: b0c7 d4bd 5138 9e3d e610 343d 339c fbbd
00000290: 9a16 b13b a5e8 06be 41ff d2bd af01 503e
000002a0: f54b 5dbc 7838 e53d a663 8bbd 8622 5dbd
000002b0: 6685 b23d 8025 56bc 1f85 113e e367 9a3d
000002c0: 82a1 e23d b08f 0cbc 18b7 2f3e 391b b53c
000002d0: 50b2 533d 2a50 0cbc 10ab 2b3e 00ba a7bd
000002e0: f985 503d dc03 77be f6af be3d c7c9 37bd
000002f0: 82c5 2fbe e0ad bbbd 4623 cd3d 4c4c 44be
00000300: fa85 22be 2fda ec3d 4ec5 a6bd f059 74be
00000310: 4dad dcbd 353d 9e3d 5352 813b ce1e 483e
00000320: 5be8 cabd 2d81 92be 59c6 c9bc 3397 e13d
00000330: ed2e 41bd cf82 653e b76b 88bd 0a93 983b
00000340: dac7 36bd d81c 2c3e 97f8 b03d c4c0 06be
00000350: 40c0 35bd b340 373d ef20 7fbd 8eff 673e
00000360: 8979 9e3d da4b ac3d ea01 e33d ba30 82be
00000370: b3e6 83bd 4d3c 01be 8375 76be 6439 1ebe
00000380: 375d b6bd 2cad ee3d 435d 05bb 886a 17be
00000390: bdc8 0d3d 9146 ae3d 8b79 e2bc 7e98 323e
000003a0: 65d6 023d 0994 76bd f2a2 cd3d 12dd a9bd
000003b0: 8b7a 9fbd cea4 e4bc d111 8e3d 6ef0 e73c
000003c0: b895 4ebd de1f b13d 34a1 713d 8360 7cbe
000003d0: 3e08 4c3d 2154 5fbd 5cf7 8fbc 07ed 78bc
000003e0: eab1 d5bd a411 f7bd 466b 01be 58ea be3d
000003f0: 359d 67bc 3796 8d3d 1326 a1bc 53d6 68bd

fc1.bias f4 [256]
0.06755311 0.12346493 0.058390502 0.008976271 0.15833774 0.038053248 0.086817205 0.07174272
-0.022476349 0.014971649 -0.12614618 0.063848056 0.0017157906 0.037206676 -0.04378165 -0.053063467
-0.1325715 0.049836606 -0.014167319 0.10887019 -0.12048847 -0.10843352 0.087620154 -0.007374005
-0.09539725 -0.0762429 -0.11600123 -0.1167328 0.079830915 -0.105579846 0.0041596983 -0.067798324
0.006011845 0.051477987 0.099068515 0.12937534 0.06084828 0.03862408 -0.017948413 -0.15053302
-0.13898826 0.13240522 0.08197994 0.10213617 -0.14493532 -0.077553034 0.07424971 -0.10693713
-0.017327186 0.043757983 0.09884483 -0.10503358 -0.05610403 0.112594634 0.12283777 -0.08562992
-0.038823154 -0.110722564 0.02927425 -0.08837877 -0.117927365 0.054275163 -0.14469974 0.06963454
0.072108254 -0.08418419 -0.028197868 -0.057462133 0.001136205 0.04417711 -0.087132886 -0.11914509
-0.18176828 -0.03665939 -0.02126604 0.019576585 -0.06967531 0.041677937 0.0017649815 9.520295e-05
-0.14957015 0.030445863 0.10705057 0.00395814 -0.094879605 -0.06869353 0.087507375 0.06467088
0.049800362 -0.11325463 0.09144167 0.007290636 0.032733306 -0.016344368 0.079605155 -0.047017068
0.05808251 0.043065324 -0.012805676 -0.121806875 0.04979264 0.055559658 -0.041080054 0.022867769
0.09090016 -0.11484653 0.056592423 -0.0034044601 0.08683294 -0.03607244 -0.08467406 -0.048474714
-0.11686087 0.12403978 -0.10014351 -0.024134535 -0.06326276 0.020799398 0.05972643 0.043582875
-0.0513011 -0.11956883 0.17646295 0.052285753 -0.02216217 0.06258389 -0.007034935 0.048278507
0.026153574 -0.16108403 0.11731772 -0.11757778 -0.05950601 0.05197774 -0.05874327 -0.023911508
-0.0038736581 0.040776275 0.14836718 0.03050587 0.09650297 0.016834157 -0.082613885 -0.092680305
-0.10129066 -0.022013431 -0.038769934 -0.076093175 -0.036891952 -0.11064929 -0.12605764 -0.112485975
-0.04710831 -0.008487043 -0.10797672 -0.03453408 0.043881215 -0.028775228 0.04502597 0.09748816
-0.121527165 -0.10184932 -0.19086272 -0.09260317 -0.026990924 -0.15748723 0.025570888 -0.0976187
0.07101653 0.1302812 -0.086735256 -0.04149652 0.089617744 0.07159854 0.024750477 -0.08156246
0.033242293 0.10407006 -0.093110114 0.0020511341 0.019998008 0.07347994 -0.16664372 -0.14935128
-0.017257014 -0.1499707 0.100816876 0.10503239 0.004135581 -0.17146365 0.014641842 0.06522083
-0.048564296 0.10013748 0.055994086 0.123816416 0.03861136 0.048741408 2.1608914e-05 0.08458097
-0.054315947 -0.13041703 -0.1706565 0.02412953 0.07312911 -0.105226085 0.08005847 0.10971844
-0.03708534 -0.029754436 -0.12014825 -0.08457088 -0.05377038 0.111954466 0.06343251 0.062110867
-0.05272159 0.082618736 -0.028076045 -0.0038703626 0.07542661 -0.025376024 0.008437804 -0.020672109
0.008839661 -0.027020171 -0.0013577426 0.047091264 -0.05499901 -0.049851768 -0.003380044 -0.0061603324
0.0008810982 0.00864158 0.04209454 0.021868462 -0.061129812 -0.1042443 -0.01868303 0.014878094
-0.14222969 -0.021351745 -0.08081027 0.104425214 -0.056516357 0.033009704 -0.083033495 0.053928666
-0.07786062 0.08861482 0.101930924 0.04083407 0.124569245 0.08805828 -0.14278829 0.0016419822
00000000: 4959 8a3d 2edb fc3d e12a 6f3d 3611 133c
00000010: 4a23 223e b9dd 1b3d 38cd b13d d9ed 923d
00000020: 5220 b8bc a64b 753c 772c 01be c5c2 823d
00000030: 61e4 e03a 0766 183d 6354 33bd 1459 59bd
00000040: d3c0 07be 7821 4c3d 0b1e 68bc 56f7 de3d
00000050: a9c2 f6bd 6512 debd 3272 b33d a3a1 f1bb
00000060: a25f c3bd 3d25 9cbd 0e92 edbd 9b11 efbd
00000070: 647e a33d 3f3a d8bd 144e 883b d9d9 8abd
00000080: 03ff c43b 95da 523d 6fe4 ca3d f87a 043e
00000090: 0c3c 793d 4934 1e3d 8d08 93bc 5425 1abe
000000a0: f052 0ebe 3c95 073e 19e5 a73d c52c d13d
000000b0: ed69 14be 20d4 9ebd 3b10 983d db01 dbbd
000000c0: bef1 8dbc 923b 333d 296f ca3d d81b d7bd
000000d0: 57cd 65bd 0498 e63d 5e92 fb3d bd5e afbd
000000e0: 0705 1fbd 83c2 e2bd 8dd0 ef3c eeff b4bd
000000f0: e783 f1bd a24f 5e3d 2b2c 14be 8e9c 8e3d
00000100: 7ead 933d c368 acbd 37ff e6bc 6a5d 6bbd
00000110: b7ec 943a 0ff3 343d ba72 b2bd 5702 f4bd
00000120: 7721 3abe 2828 16bd 1e36 aebc 135f a03c
00000130: eeb1 8ebd 7cb6 2a3d f456 e73a b2a7 c738
00000140: eb28 19be 9a69 f93c 543d db3d 49b3 813b
00000150: 3d50 c2bd 32af 8cbd 1137 b33d 2b72 843d
00000160: 77fb 4b3d 0bf2 e7bd c545 bb3d 4ae6 ee3b
00000170: 5c13 063d a0e4 85bc 0708 a33d f894 40bd
00000180: ede7 6d3d 4465 303d e6ce 51bc e275 f9bd
00000190: 5ef3 4b3d 8692 633d 8f43 28bd 3055 bb3c
000001a0: dd29 ba3d a834 ebbd 75cd 673d 5d1d 5fbb
000001b0: 78d5 b13d b2c0 13bd 9869 adbd 6c8d 46bd
000001c0: c054 efbd 9108 fe3d 0a18 cdbd cab5 c5bc
000001d0: e88f 81bd 8063 aa3c b3a3 743d f583 323d
000001e0: 1a21 52bd 81e0 f4bd b4b2 343e 9629 563d
000001f0: 708d b5bc fc2b 803d 5085 e6bb afbf 453d
00000200: 0540 d63c 36f3 24be 4644 f03d 9ecc f0bd
00000210: 93bc 73bd 9ce6 543d c89c 70bd 11e2 c3bc
00000220: 33dd 7dbb 0605 273d 91ed 173e 72e7 f93c
00000230: 59a3 c53d c9e7 893c 7831 a9bd 2ccf bdbd
00000240: 7a71 cfbd 8355 b4bc 39cd 1ebd bdd6 9bbd
00000250: 041c 17bd 189c e2bd 4115 01be 0c5f e6bd
00000260: a5f4 40bd 3d0d 0bbc e622 ddbd 9c73 0dbd
00000270: cabc 333d 07ba ebbc 276d 383d dfa7 c73d
00000280: 3ce3 f8bd 6096 d0bd 8471 43be bba6 bdbd
00000290: 121c ddbc 5544 21be 0a7a d13c 50ec c7bd
000002a0: 1d71 913d 6f68 053e 41a2 b1bd 41f8 29bd
000002b0: 8289 b73d 41a2 923d 83c1 ca3c 380a a7bd
000002c0: 1229 083d af22 d53d 84b0 bebd 526c 063b
000002d0: ddd2 a33c a77c 963d a7a4 2abe 8bef 18be
000002e0: 955e 8dbc eb91 19be 1479 ce3d 391b d73d
000002f0: c583 873b 2b94 2fbe 56e4 6f3c 8092 853d
00000300: 5beb 46bd e114 cd3d 0e5a 653d 7693 fd3d
00000310: f226 1e3d 12a5 473d ca44 b537 ca38 ad3d
00000320: 667a 5ebd 0b8c 05be 94c0 2ebe 4bab c53c
00000330: b7c4 953d c680 d7bd b2f5 a33d 10b4 e03d
00000340: cce6 17bd 93bf f3bc 4910 f6bd 7f33 adbd
00000350: 543e 5cbd 6248 e53d e7e8 813d f767 7e3d
00000360: 98f2 57bd 0334 a93d bcff e5bc e9a5 7dbb
00000370: 4479 9a3d 61e1 cfbc b73e 0a3c 8e58 a9bc
00000380: 3ad4 103c 6859 ddbc 48f6 b1ba c5e2 403d
00000390: a446 61bd 5e31 4cbd ba83 5dbb 9ddc c9bb
000003a0: 80f9 663a 6a95 0d3c 536b 2c3d 7d25 b33c
000003b0: 4163 7abd 097e d5bd 270d 99bc 40c3 733c
000003c0: a9a4 11be dbe9 aebc db7f a5bd e3dc d53d
000003d0: b27d 67bd 2f35 073d 770d aabd 4ee4 5c3d
000003e0: 6475 9fbd b07b b53d 29c1 d03d a041 273d
000003f0: 291e ff3d e657 b43d 1837 12be c837 d73a

fc2.weight f4 [256, 256]
0.026124936 -0.07225182 -0.0312695 0.0051196674 -0.05095865 -0.081049636 0.0188726 -0.08567904
-0.047528602 0.0032509707 0.00958435 0.10252906 -0.0054110033 -0.012480661 0.027356315 -0.06411113
0.0047159456 -0.092212856 -0.08863649 0.050056364 0.05278128 0.05279026 0.010776434 -0.05161606
0.016351782 0.044124108 0.044300247 0.005722669 -0.010518812 0.015955009 0.04508534 -0.059742745
-0.035309903 -0.11768312 0.04914309 -0.005848343 -0.05830865 0.00913766 0.027190935 0.02948515
0.008747469 0.073026374 -0.04359577 -0.019580638 -0.042419393 0.029722568 0.084830016 0.034216605
-0.10322706 -0.012307946 -0.039151367 0.051800016 -0.05268963 0.0027427394 -0.08238891 0.04161932
0.015071583 -0.043387253 0.0030498726 -0.01721917 0.061707024 0.04726087 0.0018513076 0.0042048222
0.012821624 -0.034140646 -0.05276633 -0.014606713 0.03264413 -0.030831156 -0.050430845 -0.05784284
0.04404622 -0.039735965 -0.103541225 0.012799084 -0.075163834 0.074902564 0.043591708 -0.10406461
0.028024055 -0.025305819 -0.025160233 -0.006677593 -0.014329119 0.023730792 -0.06101538 -0.010466664
0.017520327 -0.075897224 0.02278476 -0.043674123 -0.015546614 -0.005846695 -0.0026361153 0.014598683
0.038165778 0.014734745 0.013948354 0.0027694937 0.025007067 -0.043250166 0.022163948 -0.080462664
-0.033581313 -0.06543253 0.049503632 0.034546893 -0.004699676 -0.01068843 0.064904094 -0.044728078
-0.0668749 -0.010478391 -0.07249273 -0.022846432 0.050559875 0.009415625 -0.077434324 -0.093865134
0.026982956 -0.06998274 0.015176016 -0.040589314 0.029292483 0.0023936774 -0.074840955 -0.019143913
0.03258048 0.08190998 -0.001328213 0.03664856 0.014013829 -0.021366736 -0.0029551054 4.6432404e-05
-0.13828577 0.06962816 0.00942514 0.10712302 -0.055787914 0.046859097 0.040356234 0.013116389
0.0060277535 -0.04963336 -0.013100967 -0.111297816 0.017672393 0.08679489 -0.019952463 0.044632263
-0.08414846 -0.035542622 -0.024063507 -0.0973048 -0.044256058 0.021038763 -0.021907536 0.0013057544
-0.059760097 -0.030428031 -0.0143679585 -0.036058187 -0.043555178 0.037879523 -0.08103512 -0.042326245
0.036060635 -0.0247582 0.02995277 -0.007836487 -0.010333139 -0.11753461 0.021448214 0.024817701
-0.031010093 0.0060694707 -0.02533947 0.09933958 -0.04425462 0.068514 0.0040317443 -0.018385997
0.084789 -0.049461138 0.024030833 -0.06273904 -0.0023555488 0.017598743 0.039499708 0.040420927
-0.062265504 0.051620062 0.01162086 0.012647524 -0.063071415 -0.007711379 -0.03760272 0.0031588585
-0.0063566635 -0.018880254 0.019094406 -0.04846953 -0.03163545 0.027625447 -0.03131977 0.001395531
0.0137694515 -0.034499113 0.03536051 0.054557994 0.029911468 0.006137909 0.041716143 -0.025680395
-0.026319264 -0.028646229 0.04534741 0.036134664 0.0332482 0.068035305 -0.041225817 0.025937399
0.08625598 0.0142022045 0.022586538 -0.07272782 0.054724053 0.009379727 0.08461923 -0.087348595
-0.027366826 -0.0063316743 -0.017398268 -0.028826911 -0.071096435 0.03063315 0.066877455 -0.06383955
-0.13550563 0.015177955 -6.994621e-05 -0.06309032 0.043756522 -0.084556915 -0.059793543 -0.007007394
-0.011288621 -0.06780224 -0.022726355 0.010941705 0.0848311 -0.016112946 -0.04628473 -0.041762695
00000000: f603 d63c c3f8 93bd 7214 00bd e2c2 a73b
00000010: 04ba 50bd 5afd a5bd b69a 9a3c 7e78 afbd
00000020: 5aad 42bd 3d0e 553b ad07 1d3c c1fa d13d
00000030: c94e b1bb b07b 4cbc 5a1a e03c b24c 83bd
00000040: 3888 9a3b 18da bcbd 0c87 b5bd e707 4d3d
00000050: 2f31 583d 9a3a 583d a48f 303c 5d6b 53bd
00000060: 2cf4 853c 7bbb 343d 2d74 353d 3a85 bb3b
00000070: 1857 2cbc 14b4 823c 68ab 383d cfb4 74bd
00000080: 1ea1 10bd d903 f1bd 444a 493d 75a3 bfbb
00000090: 0dd5 6ebd 20b6 153c 86bf de3c d78a f13c
000000a0: 8b51 0f3c da8e 953d 7a91 32bd 9367 a0bc
000000b0: f5bf 2dbd be7c f33c 5cbb ad3d b626 0c3d
000000c0: b568 d3bd 44a7 49bc 2f5d 20bd 412c 543d
000000d0: 15d1 57bd 88bf 333b 84bb a8bd 0579 2a3d
000000e0: cdee 763c d5b6 31bd 5fe0 473b 380f 8dbc
000000f0: 81c0 7c3d 9d94 413d 93a7 f23a 9bc8 893b
00000100: ca11 523c 10d7 0bbd 8221 58bd ff50 6fbc
00000110: dab5 053d 9f91 fcbc 9390 4ebd 9dec 6cbd
00000120: cf69 343d 2ec2 22bd 6c0d d4bd 40b3 513c
00000130: 7fef 99bd 8466 993d 388d 323d d41f d5bd
00000140: b492 e53c 264e cfbc d51c cebc b6cf dabb
00000150: aec4 6abc 1467 c23c 43eb 79bd 5f7c 2bbc
00000160: ca86 8f3c 0170 9bbd 1ba7 ba3c a3e3 32bd
00000170: 3ab7 7ebc a295 bfbb adc2 2cbb 512f 6f3c
00000180: b853 1c3d 006a 713c a387 643c 6580 353b
00000190: 9fdb cc3c 1627 31bd 2b91 b53c 9cc9 a4bd
000001a0: 8f8c 09bd 7e01 86bd 52c4 4a3d 0b81 0d3d
000001b0: bdff 99bb 861e 2fbc 70ec 843d ca34 37bd
000001c0: b5f5 88bd 8fad 2bbc 1277 94bd 7128 bbbc
000001d0: df17 4f3d fe43 1a3c e395 9ebd 5d3c c0bd
000001e0: 5c0b dd3c 1c53 8fbd d3a4 783c fb40 26bd
000001f0: caf6 ef3c 3edf 1c3b 3746 99bd b2d3 9cbc
00000200: 1c73 053d 6bc0 a73d 6f17 aeba cd1c 163d
00000210: 429a 653c 4b09 afbc 71aa 41bb 6ac0 4238
00000220: c99a 0dbe 3599 8e3d e76b 1a3c 5063 db3d
00000230: de81 64bd 53ef 3f3d 944c 253d 1fe6 563c
00000240: 7684 c53b 5a4c 4bbd 70a5 56bc 1cf0 e3bd
00000250: b2c5 903c 85c1 b13d 5973 a3bc 52d0 363d
00000260: 0756 acbd 2495 11bd d520 c5bc bd47 c7bd
00000270: d745 35bd 7c59 ac3c 6f77 b3bc d925 ab3a
00000280: 01c7 74bd 3544 f9bc 9667 6bbc c0b1 13bd
00000290: ea66 32bd 8f27 1b3d bef5 a5bd 495e 2dbd
000002a0: 51b4 133d b5d1 cabc 835f f53c 9c64 00bc
000002b0: 544c 29bc fcb5 f0bd 2ab4 af3c 7e4e cb3c
000002c0: e108 febc 69e2 c63b b894 cfbc 8d72 cb3d
000002d0: 5544 35bd 1151 8c3d b91c 843b 3b9e 96bc
000002e0: dba5 ad3d c397 4abd 4fdc c43c 537d 80bd
000002f0: 8d5f 1abb 3d2b 903c 72ca 213d 6a90 253d
00000300: 1d0a 7fbd 8f6f 533d 6b65 3e3c 8f37 4f3c
00000310: 962b 81bd bcaf fcbb 4f05 1abd da04 4f3b
00000320: 8f4b d0bb c3aa 9abc df6b 9c3c fc87 46bd
00000330: 2c94 01bd c34e e23c 2949 00bd 40ea b63a
00000340: 4499 613c f14e 0dbd 2fd6 103d 3478 5f3d
00000350: e508 f53c 8320 c93b 8cde 2a3d b15f d2bc
00000360: 7f9b d7bc 7fab eabc 35be 393d f101 143d
00000370: 442f 083d 1856 8b3d 67dc 28bd ab7a d43c
00000380: faa6 b03d 5db0 683c 6707 b93c 53f2 94bd
00000390: 5426 603d 6dad 193c d94c ad3d d2e3 b2bd
000003a0: 6530 e0bc ef79 cfbb d086 8ebc 6a26 ecbc
000003b0: 029b 91bd 5ff2 fa3c 0cf7 883d 4fbe 82bd
000003c0: fdc1 0abe f5ac 783c 16b0 92b8 7f35 81bd
000003d0: 0a3a 333d 2d2c adbd 13ea 74bd 489e e5bb
000003e0: e9f3 38bc e7db 8abd 9f2c babc d644 333c
000003f0: eebb ad3d 4cff 83bc 0f95 3dbd 5c0f 2bbd

fc2.bias f4 [256]
-0.0059529017 0.013629446 0.07431698 -0.027187146 0.063011095 -0.008806561 0.014072042 0.0027170288
-0.003635098 -0.05038495 -0.07418285 0.015246093 0.031175751 -0.013311024 0.0043040556 -0.009716183
-0.07763155 0.037097875 0.0043687155 0.07021891 -0.0031197455 0.0008678199 -0.042500515 -0.026863277
-0.0030469168 -0.019145973 0.023327062 -0.03925517 0.021118812 0.021224443 -0.0009661177 -0.056248188
-0.011260191 -0.0738814 0.015731633 0.04084034 -0.049928594 0.03653607 -0.034489457 0.018294401
-0.053742778 -0.031219518 0.0137729375 -0.056837585 -0.027696505 0.04613882 0.018617911 0.0851405
-0.07532577 -0.048626594 -0.006869314 0.04045296 0.03171382 -0.010842652 0.01770285 -0.037609994
0.04590765 0.06463892 0.010717511 0.00254561 0.07080995 0.02438213 -0.033901576 -0.02954903
0.033592008 0.013091799 -0.022037225 -0.0074164555 0.07551822 -0.06496184 -0.011139058 0.050461
0.074823 -0.0519669 0.05107243 -0.00440691 -0.05863804 -0.06755117 0.048022956 0.0011858403
0.037407596 -0.062059216 -0.028383743 -0.04581274 -0.04158737 0.08159514 -0.01934649 -0.030987212
-0.049723264 -0.000112503774 -0.047551263 0.031104852 0.07550453 -0.070220515 -0.009057252 -0.011835727
-0.06137351 -0.04909663 0.08028687 -0.03134152 -0.055008765 -0.020514874 -0.019582933 0.04927047
-0.060263317 0.019380149 0.02139636 -0.031669628 -0.0047526755 0.0064862366 -0.0027581193 -0.021444853
-0.050913766 0.015346544 0.09500965 -0.059463833 0.009146896 -0.06721913 0.006678697 0.06653465
0.05892493 0.093776315 -0.010337378 0.098582305 -0.07011628 -0.049568463 0.01956534 0.08976138
-0.03646559 -0.041052975 -0.02641413 0.03420925 0.010060812 0.06351186 0.0747107 0.01158946
0.012021566 0.02573555 -0.021956867 -0.018667877 0.053299453 0.0135084335 0.036687087 0.034313377
0.049683932 -0.029635157 -0.05296471 0.016996125 -0.069716595 0.044734664 -0.014253048 -0.012928357
0.013681255 -0.028458668 0.026376152 0.018504707 -0.08452058 -0.068959795 0.019668477 0.085592955
0.01407894 -0.00941852 -0.025976071 0.041660544 0.0146731725 -0.045285907 -0.046847403 0.019282522
-0.080702506 -0.01869015 -0.027114289 -0.044906754 -0.040515676 0.02122463 0.04324647 0.0152467815
-0.043796282 -0.020876445 -0.069096245 -0.060183216 -0.033583228 -0.083367996 -0.06536235 0.0030411182
-0.053863883 0.030031279 0.02256942 -0.017758274 0.0767659 -0.071452305 -0.0153413955 -0.035912342
0.0102724545 -0.0721618 0.019199954 0.08659278 0.060159966 -0.06052547 0.0077006454 -0.011868493
-0.01752605 -0.011375456 -0.0120315645 -0.046748377 0.026425255 0.00093777047 -0.010203997 -0.045614336
0.043310933 -0.020652121 -0.021085259 0.038852077 -0.020555388 0.012104957 0.014796218 0.0063992105
0.022655271 -0.012917982 -0.07361551 -0.052886356 0.0839773 -0.0139915375 0.0014992008 0.050585832
-0.016159706 0.048540097 -0.07661622 0.04957633 -0.07090498 0.020357551 0.025577296 -0.0007572791
0.027019862 0.019840522 0.018979691 0.014324025 -0.03180746 -0.05100783 -0.016243856 -0.053257693
-0.050775193 0.08594684 -0.0034203718 -0.010123484 0.016664188 0.0031933154 -0.012918566 -0.03153669
-0.05992934 0.060432322 0.060677007 0.034170877 0.0353426 -0.016018774 0.088221096 0.036536507
00000000: 8f10 c3bb 0a4e 5f3c 8033 983d 94b7 debc
00000010: f60b 813d 6549 10bc 6c8e 663c 2e10 323b
00000020: d33a 6ebb 7360 4ebd 2eed 97bd c0ca 793c
00000030: 4a64 ff3c 7b16 5abc 0909 8d3b a030 1fbc
00000040: 4afd 9ebd f1f3 173d 7127 8f3b efce 8f3d
00000050: a574 4cbb 687e 633a 0515 2ebd 6010 dcbc
00000060: c8ae 47bb 04d8 9cbc 6518 bf3c 07ca 20bd
00000070: 5c01 ad3c e2de ad3c 1043 7dba 8064 66bd
00000080: aa7c 38bc 224f 97bd a0df 803c 3348 273d
00000090: ed81 4cbd d9a6 153d d144 0dbd 24de 953c
000000a0: 6321 5cbd 13c0 ffbc e3a7 613c 87ce 68bd
000000b0: c8e3 e2bc 0ffc 3c3d 9784 983c 245e ae3d
000000c0: 6644 9abd ae2c 47bd fb17 e1bb 01b2 253d
000000d0: 5ae6 013d 61a5 31bc 9105 913c f00c 1abd
000000e0: a909 3c3d 6961 843d 8098 2f3c 40d4 263b
000000f0: cf04 913d 08bd c73c 61dc 0abd cf10 f2bc
00000100: c697 093d fc7e 563c 6987 b4bc bd05 f3bb
00000110: 4ca9 9a3d b70a 85bd 9880 36bc 32b0 4e3d
00000120: cd3c 993d 3edb 54bd 5331 513d d767 90bb
00000130: 712e 70bd 4558 8abd b8b3 443d 336e 9b3a
00000140: b538 193d ce31 7ebd 0685 e8bc 24a6 3bbd
00000150: 8557 2abd 5a1b a73d 887c 9ebc e5d8 fdbc
00000160: 9faa 4bbd 01f0 ebb8 1dc5 42bd 9acf fe3c
00000170: 1ea2 9a3d c6cf 8fbd de64 14bc a3ea 41bc
00000180: ca62 7bbd 8c19 49bd 716d a43d f75f 00bd
00000190: df50 61bd cf0e a8bc 636c a0bc d5cf 493d
000001a0: abd6 76bd 1ec3 9e3c 6b47 af3c 03b8 01bd
000001b0: 55bc 9bbb 7f8a d43b 90c1 34bb 1ead afbc
000001c0: f48a 50bd 1270 7b3c 6b94 c23d 5990 73bd
000001d0: dddc 153c 2faa 89bd f9d8 da3b 5243 883d
000001e0: 445b 713d cc0d c03d 1b5e 29bc 85e5 c93d
000001f0: 2099 8fbd 4d08 4bbd 7e47 a03c d0d4 b73d
00000200: f15c 15bd 2a27 28bd 7262 d8bc 001f 0c3d
00000210: 1bd6 243c 8212 823d ec01 993d b8e1 3d3c
00000220: 1af6 443c 5cd3 d23c e3de b3bc 60ed 98bc
00000230: 8750 5a3d 7a52 5d3c 3345 163d 2f8c 0c3d
00000240: 6181 4b3d 6ec5 f2bc 86f1 58bd 753b 8b3c
00000250: 93c7 8ebd b23b 373d 9e85 69bc 76d1 53bc
00000260: 5827 603c 2722 e9bc cd12 d83c 2f97 973c
00000270: 2019 adbd cb3a 8dbd c91f a13c 5c4b af3d
00000280: 5bab 663c 2350 1abc c5cb d4bc 3fa4 2a3d
00000290: bf67 703c b77d 39bd 10e3 3fbd 61f6 9d3c
000002a0: 5b47 a5bd 161c 99bc c91e debc 25f0 37bd
000002b0: c4f3 25bd 46df ad3c 3623 313d a3cd 793c
000002c0: bb63 33bd 1405 abbc 5582 8dbd ad82 76bd
000002d0: 918e 09bd d7bc aabd b2dc 85bd 7f4d 473b
000002e0: 60a0 5cbd 2804 f63c 81e3 b83c cd79 91bc
000002f0: 7137 9d3d 9655 92bd 7a5a 7bbc d218 13bd
00000300: cc4d 283c 91c9 93bd 3949 9d3c 8e57 b13d
00000310: 4c6a 763d 8ee9 77bd b255 fc3b 1174 42bc
00000320: ca92 8fbc 1f60 3abc 0a20 45bc 3a7b 3fbd
00000330: c779 d83c b6d4 753a aa2e 27bc 19d6 3abd
00000340: ce66 313d a32e a9bc feba acbc 5b23 1f3d
00000350: c663 a8bc df53 463c d66b 723c 78b0 d13b
00000360: 8c97 b93c f2a5 53bc bac3 96bd 5d9f 58bd
00000370: 4afc ab3d c33c 65bc d580 c43a 1733 4f3d
00000380: 5c61 84bc fbd1 463d f7e8 9cbd 8d10 4b3d
00000390: a136 91bd e1c4 a63c 7a87 d13c 2484 46ba
000003a0: c258 dd3c 9788 a23c 4c7b 9b3c 51af 6a3c
000003b0: 8a48 02bd 96ed 50bd d611 85bc bd24 5abd
000003c0: a6f9 4fbd e604 b03d 5128 60bb f8dc 25bc
000003d0: 5683 883c f146 513b 65a8 53bc 9e2c 01bd
000003e0: 7878 75bd e287 773d 7488 783d c3f6 0b3d
000003f0: 67c3 103d ce39 83bc 43ad b43d 4ea7 153d

mu_output.weight f4 [7, 256]
-0.023050657 -0.07761245 -0.02259234 0.0535657 0.03291136 -0.08543952 0.14378738 -0.06789192
0.091391265 -0.01732985 -0.13444488 0.1473093 -0.004265559 0.022754384 0.038790207 0.046361618
-0.09928183 -0.05610553 0.031977255 -0.14747784 0.017516939 0.0038507583 0.08884565 0.0016219616
0.036363207 0.12916423 0.0024354707 -0.018753907 -0.005608255 0.052773513 -0.11272517 -0.007088197
-0.12085926 -0.043187078 0.0782516 0.119378306 -0.05466802 0.0014420953 -0.12882762 0.111641735
0.1208548 0.06274451 0.030084394 0.023710871 0.032068297 0.025637869 0.09170442 -0.042100705
0.09024024 0.02613208 -0.08947496 -0.052901488 0.08388113 -0.010773162 0.0007728019 0.13399407
-0.024669303 0.11683398 0.104399234 0.038406722 0.11402524 -0.088322975 -0.09934319 0.115352005
-0.020618483 0.079220794 0.009917328 -0.09782388 -0.09822263 -0.010495597 0.019706601 0.083110526
0.027041435 -0.012470526 0.07991772 -0.03945996 -0.0900532 -0.036819104 0.12487516 0.028405301
-0.07069621 0.0027607093 -0.10789231 -0.08341367 0.037051037 0.037866704 0.07386074 0.029611187
0.042064823 -0.041211862 0.065038 0.04259067 0.09795972 0.1121796 -0.08905178 0.19948459
0.017939243 -0.028873703 0.15324393 -0.010833022 -0.008972254 0.04344058 0.054160964 -0.054561827
0.08950951 -0.12074761 0.067388214 -0.029723948 -0.007737634 -0.014766519 0.045181427 0.09170899
-0.019413514 -0.14355852 -0.068783015 0.06068216 0.026398377 -0.060349286 0.13185921 -0.027598968
0.071813606 0.047502942 -0.15278 -0.10510793 0.074542694 0.15444982 -0.13270105 -0.12349977
0.035866015 -0.049944226 -0.003503 -0.039638475 0.085860245 0.063566044 0.0063284007 -0.13867399
0.050011195 0.025944721 0.040109344 0.037790466 -0.0711607 -0.03808115 -0.161704 -0.005526941
-0.03964533 0.019700006 0.11596728 0.0114132855 -0.11420772 0.050574835 -0.02339861 -0.04795013
-0.072734736 0.06912352 0.04108319 -0.09761414 0.025753215 0.01584896 0.0047137197 -0.02668622
0.041512974 0.029729418 -0.18371901 0.004611169 0.012333951 -0.025272379 -0.052826982 -0.02205133
0.016740045 -0.16413204 -0.06353272 0.064814724 0.054568674 0.11439215 0.08565619 0.015417255
0.01241872 0.11455801 -0.07125076 0.008534163 0.056520257 -0.011930026 0.030327436 -0.0989545
0.03894332 0.07467408 -0.028040139 0.036074888 0.044354692 -0.06939973 0.068514824 -0.026888588
0.027585298 -0.038154103 0.07171032 -0.03509363 0.022125317 0.012253168 -0.019128963 0.0017581084
-0.13603637 0.05060155 0.04267688 -0.059227556 -0.20214495 0.07690017 0.01428597 -0.09814299
0.033675235 0.058825914 0.063825384 -0.012458742 -0.056709036 -0.019591108 0.04442677 -0.023352174
-0.019157771 0.048073106 -0.032926157 -0.010068114 -0.025755899 -0.020575522 -0.1321249 0.08661302
-0.15581925 -0.056979615 0.03303511 0.037876643 -0.037744105 0.016123414 -0.10147595 -0.031603176
0.035559822 -0.04149326 0.11863303 0.05678807 0.0009952596 -0.01765886 0.042554084 0.06630005
-0.026450967 0.026416296 -0.108132534 0.12753041 0.03742947 0.16117005 0.07833163 0.03794786
-0.06057293 0.060684104 -0.056778383 -0.0053540277 0.1023894 0.064416744 -0.028706273 -0.08917653
00000000: bbd4 bcbc 47f3 9ebd 9213 b9bc b567 5b3d
00000010: 10ce 063d eafa aebd 003d 133e eb0a 8bbd
00000020: 582b bb3d 54f7 8dbc ebab 09be 40d8 163e
00000030: 1ac6 8bbb 6767 ba3c 7be2 1e3d aee5 3d3d
00000040: 4654 cbbd eace 65bd 95fa 023d 6e04 17be
00000050: af7f 8f3c 015d 7c3b b5f4 b53d 0098 d43a
00000060: 96f1 143d a143 043e 6b9c 1f3b cba1 99bc
00000070: 74c5 b7bb 0a29 583d 74dc e6bd 1b44 e8bb
00000080: 0f85 f7bd efe4 30bd 6042 a03d 9d7c f43d
00000090: 93eb 5fbd b004 bd3a 63eb 03be 6ca4 e43d
000000a0: b982 f73d 3280 803d 8c73 f63c 4d3d c23c
000000b0: 0c5a 033d 8206 d23c 87cf bb3d ca71 2cbd
000000c0: e0cf b83d f212 d63c a63e b7bd 3baf 58bd
000000d0: dfc9 ab3d eb81 30bc dc95 4a3a be35 093e
000000e0: 4717 cabc a746 ef3d 44cf d53d 5e50 1d3d
000000f0: 1186 e93d ade2 b4bd 7174 cbbd ac3d ec3d
00000100: 18e8 a8bc 833e a23d 4a7c 223c e357 c8bd
00000110: f228 c9bd b9f5 2bbc bd6f a13c da35 aa3d
00000120: 0086 dd3c 2d51 4cbc e7ab a33d c4a0 21bd
00000130: d06d b8bd a1cf 16bd 8cbe ff3d 3cb2 e83c
00000140: 2dc9 90bd 04ed 343b a5f6 dcbd c9d4 aabd
00000150: d4c2 173d 1e1a 1b3d 4d44 973d 2993 f23c
00000160: 2a4c 2c3d c5cd 28bd a532 853d 8e73 2e3d
00000170: 1b9f c83d 6bbe e53d c860 b6bd b045 4c3e
00000180: 52f5 923c 8b88 ecbc faeb 1c3e fd7c 31bc
00000190: 5c00 13bc c0ee 313d e3d7 5d3d 397c 5fbd
000001a0: c350 b73d 864a f7bd d502 8a3d a37f f3bc
000001b0: fa8b fdbb 45ef 71bc 2910 393d ecd1 bb3d
000001c0: 1709 9fbc 0101 13be 1cde 8cbd db8d 783d
000001d0: 6941 d83c d030 77bd 1a06 073e 3b17 e2bc
000001e0: 0313 933d 7292 423d 5c72 1cbe d442 d7bd
000001f0: d7a9 983d 1828 1e3e c9e2 07be 73ed fcbd
00000200: 3ee8 123d 5192 4cbd 9692 65bb f45b 22bd
00000210: 7fd7 af3d ea2e 823d 795e cf3b 8e00 0ebe
00000220: 8ad8 4c3d 068a d43c b249 243d 2dca 1a3d
00000230: b3bc 91bd fbfa 1bbd bc95 25be 571b b5bb
00000240: 2463 22bd e861 a13c 4180 ed3d cafe 3a3c
00000250: bde5 e9bd 8f27 4f3d 71ae bfbc 5b67 44bd
00000260: f3f5 94bd a290 8d3d d946 283d ece9 c7bd
00000270: 68f8 d23c aed5 813c 8c75 9a3b 0f9d dabc
00000280: 8209 2a3d 1c8b f33c d620 3cbe 4a19 973b
00000290: 5714 4a3c 0508 cfbc 1b61 58bd fea4 b4bc
000002a0: 6b22 893c 3b12 28be 711d 82bd 95bd 843d
000002b0: 6783 5f3d 6e46 ea3d 836c af3d a898 7c3c
000002c0: e377 4b3c 649d ea3d ebeb 91bd e0d2 0b3c
000002d0: c981 673d 2876 43bc 3e71 f83c a8a8 cabd
000002e0: 0883 1f3d b9ee 983d 6fb4 e5bc 43c3 133d
000002f0: 44ad 353d 7221 8ebd 8051 8c3d 7545 dcbc
00000300: 90fa e13c 7a47 1cbd dcdc 923d 57be 0fbd
00000310: 2740 b53c 83c1 483c 58b4 9cbc 5470 e63a
00000320: 1e4d 0bbe 9243 4f3d f4cd 2e3d 9898 72bd
00000330: 16ff 4ebe d67d 9d3d b30f 6a3c 31ff c8bd
00000340: 0bef 093d 71f3 703d e2b6 823d c01f 4cbc
00000350: bc47 68bd 887d a0bc d8f8 353d 0f4d bfbc
00000360: c2f0 9cbc 4ee8 443d 94dd 06bd bbf4 24bc
00000370: 09fe d2bc ff8d a8bc c04b 07be 2b62 b13d
00000380: 158f 1fbe 7563 69bd d34f 073d 8a24 1b3d
00000390: 9099 1abd 4015 843c 9fd2 cfbd 5572 01bd
000003a0: 2da7 113d d6f4 29bd e0f5 f23d 9b9a 683d
000003b0: 5f73 823a 50a9 90bc 314d 2e3d 52c8 873d
000003c0: b3af d8bc fd66 d83c 9774 ddbd 5597 023e
000003d0: a54f 193d c309 253e 556c a03d 376f 1b3d
000003e0: 521b 78bd e58f 783d 7390 68bd d770 afbb
000003f0: 89b1 d13d edec 833d 6b29 ebbc 2fa2 b6bd

mu_output.bias f4 [7]
0.025681246 -0.05386738 -0.027334983 0.012326961 0.10995925 0.016287968 0.014152242
00000000: 7a61 d23c 0ba4 5cbd 9ded dfbc 06f7 493c
00000010: 5132 e13d 586e 853c cede 673c

log_std_output.weight f4 [7, 256]
0.04251887 -0.01669251 0.0023440397 -0.044660665 -0.020398721 0.0518756 -0.033927586 -0.0041669747
-0.0034571376 -0.04558798 -0.026425043 -0.034821052 0.03060656 -0.025818806 0.013281616 0.01473202
-0.034006923 0.005893003 -0.04692191 0.026447082 0.048267186 0.024512043 -0.061233617 -0.044648107
-0.02494113 -0.048616774 -0.008151513 0.0029241869 0.0033378748 -0.008375467 -0.028041767 -0.0023228228
0.0060869385 0.006111412 0.026672304 -0.05003104 0.0280828 0.036384713 0.02178984 -0.028602973
-0.002257474 0.008363838 -0.028925356 -0.009057329 -0.030662408 -0.008250676 -0.019227497 -0.0350957
-0.022475488 0.0016378989 0.021024212 0.047491435 0.03256609 0.021210538 0.012649246 -0.07985063
0.033523984 -0.020424103 -0.038579468 0.073287316 -0.0067763426 0.027698083 0.0029980824 0.002423049
0.04246659 -0.0186586 -0.002524077 -0.023964807 -0.0073009063 -0.030937925 0.019424856 -0.013506867
0.008285817 -0.015280449 -0.026720574 -0.060673684 0.026458107 -0.02093695 -0.024636695 -0.011189767
-0.01424101 -0.051593047 -0.07728824 0.005654746 -0.055819854 0.006020609 -0.009330418 0.069806
-0.01531548 -0.007509151 -0.023148289 0.023884768 -0.046462268 -0.013245525 0.058383282 -0.028493792
0.0064569996 -0.032746654 -0.028857935 0.047006916 0.057227492 -0.034003686 0.017810462 0.024535682
0.049149774 0.07494803 -0.03594275 0.07701454 0.001347523 -0.061392184 -0.025233299 0.022578487
0.04125319 -0.005296423 -0.06435021 -0.023538902 0.0035255416 -0.010129976 0.008269317 0.00056601886
0.03309205 -0.068289064 -0.034645032 -0.06711379 -0.05738981 0.011228884 -0.0007921846 -0.033105664
-0.02976442 -0.023653008 -0.028884316 -0.048111465 0.041160896 0.040969018 0.021483691 -0.022770947
0.007966251 -0.009303443 0.019489812 -0.03618189 -0.001537849 0.062268518 -0.04639053 -0.055672143
-0.0062306756 0.021518407 -0.001969995 0.018298985 0.05188905 -0.044218402 0.09367975 -0.048286054
-0.012273074 -0.06156475 0.017728463 -0.0253399 0.0016648334 -0.048614565 -0.008017097 0.01603575
-0.006483737 -0.04114505 0.004481961 -0.018896604 -0.045014914 -0.018510792 0.06974734 0.030633481
-0.042174757 -0.0284216 -0.0025097232 -0.0054775216 0.0025877755 0.00038112747 -0.080051385 0.04782956
0.00960595 -0.020774359 0.042286146 -0.04296788 0.0031689268 0.0013962879 0.05105074 0.009469509
-0.035404254 -0.026999095 -0.015186377 -0.029551435 0.0093976315 -0.071106814 -0.047705732 0.049776524
-0.02544232 0.022209141 -0.042423874 0.028907735 0.05235354 -0.020510959 0.01491168 -0.0370545
0.00031973718 0.0188039 0.02824472 -0.01971485 -0.047089353 0.0144602405 0.0044471268 -0.02416224
-0.021531966 0.009927027 0.0129128145 0.012614908 -0.030418688 0.017279048 -0.05344518 -0.004043358
-0.011486352 0.045940198 -0.0049761925 0.021415358 -0.008792768 -0.011927648 -0.028474582 0.03700697
-0.052809082 -0.0040937676 -0.02810979 -0.039567005 0.04527084 0.002190634 -0.023858286 -0.011921857
-0.05196611 -0.07078054 -0.01655015 -0.004692155 0.044327714 0.03425543 -0.024585878 0.042143058
-0.04367878 0.0144064855 -0.071831875 0.06026713 -0.060767367 -0.083682545 0.0026966317 0.0010194421
0.017000355 0.016191948 -0.014199295 -0.045386545 -0.004144017 -8.4333915e-05 -0.02098973 -0.047704723
00000000: 4428 2e3d bbbe 88bc 769e 193b 1aee 36bd
00000010: 381b a7bc 827b 543d a7f7 0abd 1e8b 88bb
00000020: 2591 62bb 76ba 3abd 5579 d8bc 85a0 0ebd
00000030: 9cba fa3c f681 d3bc 239b 593c 925e 713c
00000040: d84a 0bbd 181a c13b 3031 40bd 8da7 d83c
00000050: d0b3 453d 7bcd c83c 1ad0 7abd efe0 36bd
00000060: 5751 ccbc 6222 47bd ec8d 05bc b7a3 3f3b
00000070: 3fc0 5a3b 4139 09bc d9b7 e5bc 803a 18bb
00000080: f174 c73b 3d42 c83b e07f da3c 59ed 4cbd
00000090: e60d e63c 2308 153d 9b80 b23c c850 eabc
000000a0: 21f2 13bb 7b08 093c def4 ecbc 3165 14bc
000000b0: bb2f fbbc d82d 07bc fc82 9dbc 82c0 0fbd
000000c0: 841e b8bc c4ae d63a f83a ac3c 6186 423d
000000d0: 0564 053d b9c1 ad3c c83e 4f3c ba88 a3bd
000000e0: 7250 093d 7350 a7bc 8105 1ebd a917 963d
000000f0: 150c debb 17e7 e23c 7a7b 443b 04cc 1e3b
00000100: 72f1 2d3d ecd9 98bc fc6a 25bb d851 c4bc
00000110: 713c efbb 8871 fdbc e020 9f3c e84b 5dbc
00000120: 3cc1 073c d95a 7abc 1be5 dabc f884 78bd
00000130: acbe d83c f783 abbc e5d2 c9bc 4955 37bc
00000140: 2053 69bc 3b53 53bd 4c49 9ebd 734b b93b
00000150: 5ca3 64bd 8748 c53b 9cde 18bc 73f6 8e3d
00000160: c7ed 7abc 530f f6bb 7ba1 bdbc fda9 c33c
00000170: 384f 3ebd c203 59bc 4f23 6f3d d06b e9bc
00000180: 3d95 d33b 5b21 06bd 7a67 ecbc 538a 403d
00000190: 6067 6a3d 7347 0bbd 3fe7 913c 0eff c83c
000001a0: 4651 493d 5a7e 993d b438 13bd cdb9 9d3d
000001b0: 5e9f b03a 5f76 7bbd 10b6 cebc 85f6 b83c
000001c0: 1bf9 283d 9e8d adbb 0bca 83bd a8d4 c0bc
000001d0: c60c 673b 33f8 25bc 087c 073c e260 143a
000001e0: 888b 073d 23db 8bbd f3e7 0dbd f472 89bd
000001f0: 9411 6bbd 5af9 373c 9caa 4fba ce99 07bd
00000200: 83d4 f3bc f4c3 c1bc cd9e ecbc 8710 45bd
00000210: 5498 283d 21cf 273d 91fe af3c 238a babc
00000220: e184 023c 786d 18bc 19a9 9f3c 7633 14bd
00000230: a691 c9ba 460d 7f3d ff03 3ebd 7908 64bd
00000240: b22a ccbb 5f47 b03c 081b 01bb c1e7 953c
00000250: 9d89 543d 5b1e 35bd 2bdb bf3d 99c7 45bd
00000260: 0115 49bc 522b 7cbd 483b 913c 9f95 cfbc
00000270: 8a36 da3a 1120 47bd 245a 03bc 685d 833c
00000280: 8775 d4bb b687 28bd 6add 923b 0dcd 9abc
00000290: 8f61 38bd f2a3 97bc b2d7 8e3d 11f3 fa3c
000002a0: 70bf 2cbd 6ad4 e8bc 2b7a 24bb c87c b3bb
000002b0: ab97 293b 10d2 c739 fbf1 a3bd eee8 433d
000002c0: 4662 1d3c fd2e aabc 3d34 2d3d 16ff 2fbd
000002d0: c5ad 4f3b a603 b73a 951a 513d 0026 1b3c
000002e0: 0d04 11bd 352d ddbc 48d0 78bc da15 f2bc
000002f0: 86f8 193c 73a0 91bd 1667 43bd 78e2 4b3d
00000300: 6a6c d0bc f2ef b53c a8c4 2dbd eacf ec3c
00000310: aa70 563d 9906 a8bc 1e50 743c 76c6 17bd
00000320: 66a2 a739 a30a 9a3c 7961 e73c 0981 a1bc
00000330: c4e0 40bd a5ea 6c3c 34b9 913b e4ef c5bc
00000340: ce63 b0bc f8a4 223c 4590 533c c2ae 4e3c
00000350: 9d30 f9bc ca8c 8d3c 55e9 5abd 257e 84bb
00000360: 4131 3cbc ca2b 3c3d 540f a3bb 436f af3c
00000370: 8b0f 10bc 2f6c 43bc 8743 e9bc 9f94 173d
00000380: 564e 58bd 0325 86bb 8146 e6bc 0311 22bd
00000390: eb6d 393d bd90 0f3b 7472 c3bc e453 43bc
000003a0: 6ada 54bd 63f5 90bd 2e94 87bc a6c0 99bb
000003b0: fa90 353d 6c4f 0c3d 5368 c9bc 339e 2c3d
000003c0: 85e8 32bd 2e09 6c3c 971c 93bd abda 763d
000003d0: 34e7 78bd c161 abbd f9b9 303b cd9e 853a
000003e0: 5444 8b3c faa4 843c 29a4 68bc 3ee7 39bd
000003f0: 89ca 87bb 6ddc b0b8 a7f2 abbc 0766 43bd

log_std_output.bias f4 [7]
-0.05042154 -0.06119066 -0.035768908 -0.045186162 -0.053502765 -0.0615609 -0.050771352
00000000: d186 4ebd 0fa3 7abd 6b82 12bd 2015 39bd
00000010: b725 5bbd 4827 7cbd 9ff5 4fbd
